cifar10-weightsonly/saved-models/cifar_net_e10.pth (torch, 262720 bytes, 9 tensors)

conv1.weight f4 [6, 3, 5, 5]
000000 31 38 d4 3d ae d7 ce 3c d2 a6 96 be 29 46 be be
       0.1036228 0.025249328 -0.2942415 -0.37162903
000010 de 32 a3 3e 69 d3 c6 3c 2c de 8f 3e 3f 9d 3d 3e
       0.31874746 0.02427073 0.2809919 0.18517016
000020 eb 90 2f bf c7 e4 9c bd 15 34 9d bd 80 2b d1 3e
       -0.685805 -0.07660823 -0.076759495 0.408535
000030 d9 9c ed 3e 46 75 c9 be 9e 59 3d be a5 d0 a6 be
       0.46408728 -0.39347285 -0.18491217 -0.32581058
000040 49 1a 93 3e 9f 00 db 3e 72 b8 eb 3d 75 14 ae be
       0.2873099 0.4277391 0.115097895 -0.33999982
000050 01 9b 87 bd 86 7a b6 bc 05 f7 01 3e 4c 0e 84 3e
       -0.066213615 -0.02227522 0.12691887 0.25792158
000060 88 a5 98 3e c9 23 47 3d 2c 94 e6 3d c9 c9 47 bd
       0.2981379 0.04861811 0.1125873 -0.04877642
000070 79 26 0c bf 67 85 89 3e 8f 1c fb 3d 5a 24 f1 3e
       -0.54746205 0.2685959 0.122613065 0.47098047
000080 22 d9 42 3e 8a 24 4c bf cc 00 16 be 09 71 26 bc
       0.19028142 -0.79743254 -0.14648741 -0.010158786
000090 31 57 e2 3e d2 38 fd 3e ae d6 0d bf 09 fc e4 be
       0.44207147 0.49457413 -0.554057 -0.44723538
0000a0 f0 8e c5 bd c2 a9 33 3e 14 55 c7 3e 57 3e 74 be
       -0.09646404 0.17545226 0.38932097 -0.23851906
0000b0 aa 16 08 bf 30 2f d4 bc 05 0e 26 be 84 46 a8 3c
       -0.5315958 -0.025901407 -0.16216286 0.020541437
0000c0 3c 86 08 be 80 1a 7d bd 9d c1 40 3e dc b0 99 3e
       -0.13332456 -0.06179285 0.18823858 0.30017745
0000d0 b6 82 1b be fe 30 34 bf 31 20 c3 3d 88 d8 ed 3d
       -0.15186581 -0.70387256 0.095276244 0.11613566
0000e0 3c 69 05 3f 91 e6 45 3e a3 5e 62 bf f7 6f 87 be
       0.521137 0.19326235 -0.88425654 -0.2645261
0000f0 9e 3a 57 bd 2f e4 27 3f 53 50 08 3f ad 0b 10 bf
       -0.052546136 0.65582556 0.53247565 -0.56267816
000100 f2 85 e5 be 27 35 57 be b8 11 a5 3e 0a 06 27 3f
       -0.44828755 -0.2101637 0.3224008 0.6524359
000110 d1 30 67 bd f4 a6 be be 07 1a 20 be 0c 7b f1 3d
       -0.05644304 -0.3723675 -0.15634929 0.117910475
000120 35 d4 53 3e 27 a8 3e 3e 53 34 76 3e 97 a0 03 3f
       0.2068642 0.18618833 0.24043398 0.51416916
000130 ee 2f 5c 3f 12 f3 1b 3f af 1c 8d 3e 2d 9d 68 be
       0.86010635 0.6091777 0.27560946 -0.22716208
000140 73 40 9e 3d 0d 17 b0 3c c4 75 20 3f 56 8e 9a 3f
       0.077271365 0.021495366 0.62679696 1.2074687
000150 1d bc 25 3f 2b 9c 1d be 3b 40 15 bf 9e f9 1b bf
       0.64740163 -0.15391605 -0.5830113 -0.6092776
000160 1e 89 7e 3e f0 cf 3f 3e ac 48 c0 bd 6c 20 0b bc
       0.24856994 0.18731666 -0.09388861 -0.008491617
000170 71 d6 ca be d0 18 4c be 71 64 8d 3e e4 50 3d bf
       -0.3961673 -0.1993134 0.27615693 -0.73951554
000180 8f fe 08 bf 20 83 cc be dc 9d bd be 12 8b 91 be
       -0.53513426 -0.3994379 -0.370345 -0.28426415
000190 0b 4c e7 bd 4d b7 17 3e 26 97 ac 3e 79 9a 2a 3e
       -0.11293801 0.14816017 0.33709067 0.16660489
0001a0 e6 d4 bf be 7e db 2e bf d8 d9 10 bf 18 92 28 bd
       -0.37467116 -0.6830367 -0.56582403 -0.04115495
0001b0 ca ca f4 3e 4b 7e a5 3e 45 76 be be c4 d4 57 bf
       0.47810966 0.32322916 -0.37199607 -0.8430903
0001c0 6c fe 87 bf 85 b9 85 be 91 1a 21 be 41 14 c2 3e
       -1.0624518 -0.26118103 -0.1573279 0.37906078
0001d0 a5 e2 be 3e 3b aa 7c be 6d e5 63 be 00 74 7d 3e
       0.3728229 -0.24674313 -0.22255488 0.24751282
0001e0 0f 45 08 3e 6f 11 a8 3e 45 1d 0d 3e 0e 26 67 be
       0.13307594 0.328258 0.13780697 -0.2257311
0001f0 7a 88 42 bc 85 2f 1f 3e 30 10 ea 3e 64 16 ae 3e
       -0.011873359 0.15545471 0.45715475 0.34001458
000200 dc 02 45 3d 2a ff c4 be 07 1a 05 bf 90 9c eb be
       0.04809843 -0.38475925 -0.5199284 -0.46017885
000210 8e c0 1c be 0c c1 a5 3e bf 9b 96 bd 88 94 2a 3e
       -0.15307829 0.32373846 -0.07353925 0.16658223
000220 a9 7c 81 be 58 be 26 bf 17 7b af be 72 0e 9b be
       -0.2529042 -0.6513419 -0.34273598 -0.30284458
000230 ae 6a fa 3e c9 d4 27 3f ad 86 98 3e 13 ef f5 3d
       0.48909515 0.6555906 0.2979025 0.120084904
000240 f2 94 52 3e ac 51 9d 3d e6 15 04 3f 88 52 00 3f
       0.2056463 0.07681593 0.51595914 0.5012593
000250 9e 34 9b 3c ae 07 0a be 03 7c 9e bd a3 fd b0 3e
       0.018945988 -0.13479492 -0.07738497 0.3456851
000260 16 ba 13 3f b2 f7 de 3e fb 1a 86 3d d9 6c d2 3e
       0.5770582 0.43548352 0.06548115 0.4109867
000270 51 07 02 3f 19 64 2c 3f 82 a4 b1 3c 7f 88 9c bd
       0.50792414 0.67340237 0.021684889 -0.07643222
000280 65 c2 f5 3e 66 96 0e 3f cc d9 d4 3e 01 c5 d7 be
       0.47999874 0.5569824 0.41572416 -0.4214249
000290 89 7c 53 bd 89 7b 44 3e a3 5c 58 3c bd 62 ac be
       -0.051632438 0.1918775 0.01320568 -0.3366908
0002a0 61 da 3c bf 63 7a 3e be d4 a9 fd bd 1b 13 bf be
       -0.7377072 -0.18601374 -0.12385908 -0.37319264
0002b0 09 ca e1 be 08 6f 04 bf 37 1b 7c be 04 c0 12 be
       -0.44099453 -0.5173192 -0.24619757 -0.1433106
0002c0 7f c5 09 be 40 aa 43 be 44 c2 6b be e8 d6 0c bf
       -0.13454245 -0.19107914 -0.23023325 -0.5501542
0002d0 8c 63 3d 3d ce a1 42 be f1 c5 53 be 29 1b 1e bf
       0.046237513 -0.19007036 -0.20680977 -0.61760193
0002e0 51 95 2f bf 51 5b 3e 3e e1 a7 24 be 28 6e fa be
       -0.68587214 0.18589522 -0.16079666 -0.48912168
0002f0 cb e5 69 bf 0d b8 b2 bd 09 a6 45 bd 5b e6 b1 be
       -0.9136626 -0.08726511 -0.048254047 -0.3474606
000300 4f 19 1b bf b0 1d 03 bf c0 1b 9e 3e d1 c3 e6 3d
       -0.6058549 -0.51217175 0.30880547 0.11267818
000310 00 e2 5f be 40 99 38 be e7 49 82 3e 3c 17 36 3f
       -0.21863556 -0.1802721 0.25447008 0.711292
000320 23 75 86 3d a2 d3 d2 3d ce a8 c5 3d af d7 47 3e
       0.06565311 0.10294272 0.096513376 0.1951587
000330 7f 99 0d bd 5d 7b 03 be 0b 80 2a bd ef 56 08 3e
       -0.034570213 -0.12840028 -0.041626018 0.13314413
000340 db aa db bd 7a ff 3b be fc 5b b2 3d 78 69 20 3e
       -0.107259475 -0.18359175 0.08708951 0.15665233
000350 aa 6a cc bd f2 0a 0d bf ba 98 a0 3e 8a 4f 80 bd
       -0.09981282 -0.55094826 0.3136652 -0.06265171
000360 83 7a 0a be 58 8b 87 be 8c f8 29 be 81 50 47 3f
       -0.13523297 -0.26473498 -0.1659872 0.77857214
000370 77 e4 d1 3d 85 d8 45 3d bf 91 c3 3c cc 9d 11 3f
       0.10248654 0.048302192 0.023873208 0.56881404
000380 43 22 67 3f 57 64 07 3e 5f 2b 17 be 36 29 d3 b8
       0.90286654 0.1322187 -0.14762639 -0.0001006894
000390 26 a4 6b 3e c0 cd 02 be 2a b4 48 be e3 3b 80 3e
       0.23011836 -0.127738 -0.19599977 0.2504569
0003a0 6f c5 88 3e e9 bd 0b be 11 c6 01 bf d2 a6 b0 be
       0.2671313 -0.13646664 -0.5069285 -0.34502274
0003b0 46 f9 50 bf 29 12 a5 bf 43 25 85 bf 0f 37 24 be
       -0.8163036 -1.2896167 -1.0401996 -0.16036628
0003c0 5a 77 09 bd 40 9d bb be e3 90 f2 be 60 56 dc 3d
       -0.03356109 -0.3664341 -0.47376165 0.10758662
0003d0 eb 4d 11 3f e7 52 d8 3e a9 2a 42 3f d3 04 9b 3f
       0.5675952 0.4225075 0.75846344 1.2110847
0003e0 0b 4f 55 3f 42 53 29 be a6 89 c1 3a b3 30 ae 3d
       0.83323735 -0.16535667 0.0014765754 0.085053824
0003f0 d2 96 9c 3e fa 43 d2 3e 83 7d 98 3d 0a fa 2f 3d
       0.30583817 0.41067487 0.074458145 0.042963065

conv1.bias f4 [6]
000000 a0 72 f4 be 71 39 32 bf 13 3f 17 bf b5 f0 96 be
       -0.47743702 -0.696189 -0.5908062 -0.2948052
000010 2e a4 c9 3e 2c 61 ac be
       0.39383072 -0.33667886

conv2.weight f4 [16, 6, 5, 5]
000000 4e b3 ff be dd 11 ca 3d 27 a9 57 3c 1d 27 b1 be
       -0.49941486 0.098666884 0.013162888 -0.34600154
000010 ab a4 85 be a1 8a dc bd dc aa 9d be f7 c3 6e 3c
       -0.26102194 -0.10768629 -0.30794418 0.014573089
000020 66 e2 4b bc 8e c9 58 be 1c 28 39 3f 0a 79 2a be
       -0.012444114 -0.21170637 0.7232683 -0.16647735
000030 cd 30 a0 be a1 d5 6d 3e 4e 34 13 be 51 09 66 3e
       -0.31287232 0.23226024 -0.14375421 0.22464491
000040 91 e5 12 3f a5 85 09 be ed 2f 97 be fc dc 89 be
       0.5738154 -0.13429888 -0.29528752 -0.2692641
000050 7d 13 48 3e 92 c4 8d 3e 12 1d 84 3e 05 4e b9 bd
       0.19538684 0.27689034 0.2580343 -0.09048084
000060 b9 2b 5a be 2c a6 b0 3e 96 8c 60 3e 06 de 41 be
       -0.21305741 0.3450178 0.2192863 -0.18932351
000070 03 53 50 be a5 47 59 bd 2f ce 86 be fb ee 19 3f
       -0.20344166 -0.05304684 -0.2632918 0.6013028
000080 c6 bc 75 be 3a 83 a1 be 76 6a 6f be 0f c7 1d bf
       -0.23997793 -0.3154543 -0.23380455 -0.61631864
000090 43 2b e8 3d 09 9f 2f 3f 5c 8a 36 be 06 51 00 bf
       0.113363765 0.68602043 -0.17826217 -0.5012363
0000a0 4e e6 da bc 37 5d df be a6 11 8a 3e 23 13 b1 3e
       -0.026721146 -0.43625805 0.2696659 0.34584913
0000b0 39 b8 d5 be 77 d6 24 bb eb 52 1b 3d ae 39 3e bd
       -0.41742113 -0.0025152245 0.037920874 -0.046441726
0000c0 c4 dc 4f 3e 66 c6 c7 bd 32 77 04 3e 78 64 ec bc
       0.20299059 -0.097546384 0.12936094 -0.028856501
0000d0 60 ad cd bc 31 b6 b8 3d 5f c7 65 3d 47 de fe 3d
       -0.025107086 0.09019125 0.05609834 0.1244474
0000e0 b0 27 f8 bd 96 f5 1b be 4f 94 c1 3d 70 c4 8b 3e
       -0.12116945 -0.15230402 0.09452116 0.27298307
0000f0 07 ee 6a 3e 9a aa d5 be 14 dd 02 be eb 26 db 3d
       0.22942363 -0.4173172 -0.12779647 0.107007824
000100 3f c7 8f 3e 8a 69 6f 3e a7 67 51 be 29 24 53 be
       0.280817 0.23380104 -0.20449696 -0.20619263
000110 da 6b 09 be ff 8f 41 3d f7 dd 9a bd f2 de f8 bc
       -0.13420048 0.047256466 -0.07561868 -0.030379746
000120 b0 14 21 be 0b 52 85 be d8 87 b7 3c 4f 5d 19 3d
       -0.15730548 -0.26039156 0.022403643 0.0374425
000130 2a 0b d7 be 24 d1 ba 3d e4 f9 98 3d 6f 2b 98 bc
       -0.42000705 0.09121922 0.07469538 -0.018575398
000140 46 86 8d 3e 71 37 a8 bd 4a 7e d8 be f4 86 e4 bb
       0.27641505 -0.082136996 -0.4228385 -0.0069740955
000150 4e 3a 08 3e 56 24 6f 3c f4 c5 4e 3e 6a 97 b1 3d
       0.13303491 0.0145960655 0.201927 0.08671458
000160 92 a6 73 be 8e ed 67 3c 2a 0a ca be 0e dd f1 bd
       -0.2379401 0.014155759 -0.3946088 -0.11809741
000170 15 57 91 3e f6 74 91 3e 31 fa 2e 3e 1b ff 12 be
       0.2838675 0.28409547 0.17087628 -0.14355128
000180 1b 61 57 be 30 6e 23 be c7 b0 86 3e 6b da 9c 3e
       -0.21033137 -0.15960002 0.26306745 0.3063539
000190 01 f2 e0 bd a9 2f 82 3e 53 96 61 3e 5c a7 78 bc
       -0.109836586 0.25426987 0.2203 -0.01517662
0001a0 d4 e1 c5 3d af c7 b3 be 31 63 6f be 57 66 ae 3e
       0.09662214 -0.35113284 -0.23377682 0.34062454
0001b0 5e ac 58 3e 30 23 f5 3c 66 dd 85 be 1d 81 03 bf
       0.21159503 0.029924005 -0.26145476 -0.51368886
0001c0 5e e7 9c 3c 0e a3 ce 3e 65 7c e3 3d b8 54 cf 3d
       0.019153293 0.40358776 0.11107711 0.10123581
0001d0 61 80 c7 be df 41 e1 be bf d8 41 3e 55 0f 13 3e
       -0.38965133 -0.43995568 0.18930338 0.14361317
0001e0 20 b5 af 3e 49 64 75 bc e1 a1 a5 be db c9 32 be
       0.34317875 -0.014977523 -0.32350066 -0.17459814
0001f0 22 1a 82 3c 0d 79 72 3c ed 12 52 bd 72 a6 c5 3d
       0.015881602 0.014799369 -0.05128758 0.096508875
000200 85 ca 31 3e 53 80 c7 3d d5 d4 fe 3d 5c 1c b7 bd
       0.17362411 0.09741273 0.12442938 -0.08940956
000210 69 a7 8d be 1f b7 1a bd 09 48 85 3c 2c df 4c 3e
       -0.27666786 -0.037772294 0.0162697 0.20007008
000220 1b 0c a1 be ce 3f a1 3d 99 82 c5 bc fb df 4e 3d
       -0.31454548 0.07873498 -0.024110125 0.050506573
000230 8e 57 4f bd c9 62 51 be c3 c7 ad 3d de 95 9c bd
       -0.050620608 -0.2044784 0.08485367 -0.076457724
000240 12 39 01 be e2 66 2a be 65 04 b3 be 27 94 12 bf
       -0.12619427 -0.16640809 -0.3496429 -0.5725731
000250 af 53 5c be 7c 69 a0 be c5 c3 18 3e 25 01 22 be
       -0.21516298 -0.31330478 0.1491843 -0.15820749
000260 c0 06 94 3e 34 af f8 bd 61 b5 c3 be 2c 7e 07 3e
       0.289114 -0.12142792 -0.3822432 0.13231725
000270 58 1b 26 3e e8 98 5d be 4c 77 c5 3c aa 44 35 3c
       0.16221368 -0.2164036 0.024104737 0.011063734
000280 f9 e2 de bc 15 17 a0 3e 29 2b 32 3c 49 b1 f7 bb
       -0.027207838 0.3126761 0.010874548 -0.007558976
000290 62 4f 30 3d f1 48 1d bd ce ac 34 3c f9 a5 a7 bc
       0.043044455 -0.03839964 0.011027528 -0.020464884
0002a0 74 1d e9 bd 0e 25 0f be fb d5 3d 3b 15 0f 7d be
       -0.11382571 -0.13978979 0.0028966654 -0.24712785
0002b0 22 17 a0 be 3b 71 73 3e e0 03 d3 bd 17 07 34 3d
       -0.3126765 0.23773663 -0.103034735 0.043952074
0002c0 e6 90 c4 3e e6 a9 b8 3c 6a b9 a4 bd d5 e7 f5 bd
       0.383918 0.022541951 -0.080431774 -0.12007109
0002d0 12 6b 57 be 1f 9d be 3d 93 94 83 3e 2b 7e d3 3e
       -0.21036938 0.09307312 0.2569929 0.41307196
0002e0 be f5 5f bd 5e d3 43 3e 95 16 86 be 89 a3 ae be
       -0.054677717 0.19123599 -0.26189104 -0.34109142
0002f0 b9 96 ad 3d 25 e2 ab 3e 71 c3 3c be c2 e0 e8 3c
       0.08476014 0.33570972 -0.1843393 0.028427485
000300 e7 e7 a2 be cb d3 ba bd 6a 0c 2d be 6d ba db bd
       -0.31817552 -0.091224276 -0.16899267 -0.10728917
000310 2a b3 69 be de c6 aa be 7a fc d4 bd a5 f1 89 be
       -0.22822252 -0.3335485 -0.103997186 -0.26942173
000320 7f fa 7c be 2b a9 5f bd a1 36 fe 3e d0 9b 92 3e
       -0.24704932 -0.05460469 0.49651054 0.286345
000330 df 32 80 3e 1c ed 9d bb 37 aa b9 3c 24 54 10 be
       0.25038812 -0.0048195254 0.022664173 -0.14094597
000340 f1 dd 46 be a7 e3 e2 3d 57 9c 9c 3d c1 ef 96 bd
       -0.19420601 0.110785775 0.07647007 -0.07369948
000350 6c d4 eb bd 2b 81 0a be bf f9 41 bd b0 d8 81 be
       -0.11515126 -0.13525836 -0.047357317 -0.25360632
000360 7b 0f 87 bc 92 f5 31 be 7f c5 99 be f6 8a 1f be
       -0.016486874 -0.17378834 -0.3003349 -0.15580353
000370 ae 13 dc 3d 16 39 5b be b7 c8 9b be f2 1f 31 be
       0.10745941 -0.21408495 -0.3042657 -0.17297342
000380 30 a1 50 be a7 da 10 be a8 65 48 be 77 65 89 3e
       -0.20373988 -0.14145909 -0.19570029 0.26835224
000390 4a 95 13 3e ee 81 ae bb 4f 35 4f bd 29 5b dc 3e
       0.14412418 -0.0053255474 -0.05058795 0.430383
0003a0 e0 e8 8a 3e 24 dd b6 3c 6d 86 6b 3c 2a bb 29 3e
       0.27130795 0.022322245 0.014375311 0.16575304
0003b0 29 02 eb bc ca c0 f3 bd 49 d8 84 3b 84 13 17 be
       -0.028687553 -0.11902006 0.0040541035 -0.14753538
0003c0 69 4a 06 be 4e 08 10 3e e0 26 8d 3d 72 52 41 bd
       -0.13114323 0.14065668 0.068921804 -0.047197767
0003d0 48 16 84 bd c6 1b bc bd 12 5b 03 3e 94 1a 32 bc
       -0.06449562 -0.09184985 0.1282771 -0.0108705945
0003e0 0d 6f 06 3d 09 54 3e be ad 64 84 be 78 a3 3e be
       0.03282075 -0.18586744 -0.2585806 -0.18617046
0003f0 73 ca 17 bc 4c 93 47 be 22 2e 23 be 5d 33 50 be
       -0.009264576 -0.19489783 -0.15935567 -0.20332094

conv2.bias f4 [16]
000000 a6 cd 1b be ca 70 9d 3f a5 55 7f 3f 8f 8d 5c be
       -0.15215167 1.2300045 0.9974006 -0.21538375
000010 3a d1 81 3f c1 c1 8c 3d ef 47 55 3f 9b b7 0e bf
       1.0141976 0.06872893 0.83312887 -0.5574891
000020 39 69 e9 bf fd 63 94 be 16 02 63 bd 2f 81 02 bf
       -1.8235236 -0.28982535 -0.05542191 -0.5097837
000030 39 20 f2 bf af 87 21 3f 22 33 74 3f a0 41 a4 bd
       -1.8916084 0.6309766 0.9539052 -0.080203295

fc1.weight f4 [120, 400]
000000 b3 19 93 bb 8f fc 09 bb 75 9c 54 3c ce db f9 3b
       -0.0044891476 -0.0021055078 0.012976755 0.0076250797
000010 d4 0f 9d bd a4 d0 e3 bb e5 bd 70 bd 79 84 1e 3c
       -0.076690346 -0.006952362 -0.058774848 0.009675139
000020 8f 69 f8 bb 44 75 ea 3c 7f 1e 1c bc 08 f3 ae 3d
       -0.007580943 0.02862037 -0.009528755 0.08542448
000030 82 d7 fd 3c c9 08 8b 3d f3 62 a3 3d 80 06 55 bd
       0.030986551 0.06788785 0.079778574 -0.052008152
000040 d8 06 7d 3d 4b 62 d9 3d 09 98 4b 3c 9f 5f 67 3a
       0.061774105 0.10614451 0.012426385 0.00088261993
000050 87 ae f4 3c b9 43 55 3d 46 cb ad bd 48 81 15 3e
       0.029868377 0.05206654 -0.08486037 0.14600098
000060 19 22 d2 3d 8a 77 da bd 6b bd 70 bd 24 74 73 bd
       0.1026041 -0.106673315 -0.058774393 -0.059436932
000070 c6 5b 95 bd b4 48 75 bd 86 cc 38 bd e4 d3 c0 bd
       -0.07292895 -0.05988379 -0.045116924 -0.09415415
000080 b8 2b 13 be 52 cc 0a bd b6 08 c7 bc 91 18 87 bc
       -0.14372146 -0.03388626 -0.024296146 -0.016491206
000090 11 e3 8d bc 59 71 0a 3d b8 9f a4 3c e8 61 1f bd
       -0.017320188 0.033799503 0.020095691 -0.03891173
0000a0 66 bc 36 bc 76 99 c2 3c 93 41 92 bd 3e 52 40 bd
       -0.011153316 0.023754817 -0.071414135 -0.046953432
0000b0 ea ae 70 bb cd d1 35 3e c7 45 db 3d 03 31 a7 3c
       -0.003672535 0.17755814 0.10706668 0.020409113
0000c0 8d b4 8c 3c 65 90 c8 3c 3c 84 49 bc 0b d7 24 3d
       0.017175937 0.024482915 -0.012299594 0.040244143
0000d0 05 97 4a 3c c1 9c 48 3d 8e 39 cd bd e2 66 c0 bc
       0.012365107 0.048977617 -0.10020743 -0.023486558
0000e0 4d 3f 04 bd 68 3f 1e bd 2d ad 2e 3d 1e 91 60 3d
       -0.03228693 -0.038634688 0.042645622 0.054825895
0000f0 9b 5f c4 3b f5 81 83 bd 00 7c 58 bd 5c 36 a8 3d
       0.0059928424 -0.06421272 -0.05285263 0.08213493
000100 71 81 cb 3d be 3b 30 3d 3f b6 d8 bb 59 6b 6f bd
       0.09936798 0.043025725 -0.0066135223 -0.058451984
000110 3e d1 2c 3d 5f f1 3e bd 76 dd f8 3c 25 f9 a1 3c
       0.042191736 -0.04661691 0.030379038 0.019772122
000120 ce c5 01 bd 73 b5 63 39 d6 49 69 3c 64 62 00 bd
       -0.031682782 0.00021716002 0.014238795 -0.031343833
000130 3d 83 11 bd 08 1d 8a bd e4 b1 2a bd cb 40 c9 3b
       -0.03552555 -0.067438185 -0.041673556 0.006141757
000140 70 29 5d 3d b0 c9 16 bd 0e 98 92 bd 6c 92 f1 bd
       0.053994596 -0.036813438 -0.071579084 -0.11795506
000150 f2 ff dd 3c be e5 7a 3d d4 f2 a3 3d d2 85 93 bc
       0.027099583 0.061254255 0.080053 -0.018008146
000160 ae 33 12 3d 3a e6 a4 bd 43 69 a0 3d 2d 86 c2 3d
       0.035693817 -0.08051725 0.07832577 0.09498248
000170 dc 82 7f 3c 1d cc 32 bd 21 ab 3b bd 5e 1a 04 3d
       0.015595164 -0.04365169 -0.045817498 0.03225171
000180 cf 2b 37 bd 5f 7c 86 bd 02 26 4d bd ba b5 05 bd
       -0.044719514 -0.06566691 -0.050085075 -0.03264401
000190 d8 b8 1e bd fb 71 d9 bd 5b dc 8c bd 9b fc 39 bc
       -0.0387505 -0.10617443 -0.06877967 -0.01135173
0001a0 23 04 a3 bd 49 42 13 bd 6a c9 92 3d cb fd 75 3c
       -0.079597734 -0.035951886 0.07167323 0.015014122
0001b0 b8 a7 33 3c 9b 82 0f bd 50 7c fe 3c df 87 2d bd
       0.01096528 -0.035036664 0.031065136 -0.042365905
0001c0 d0 93 e4 3d 2c 4c f5 3c 45 15 9d bd b7 18 07 3e
       0.111610055 0.029943548 -0.076700725 0.13193022
0001d0 8a 31 8e 3d f5 7d ad ba 9c 8d 87 3b 65 1c d0 bd
       0.069430426 -0.0013236391 0.004136754 -0.10161666
0001e0 3b 86 9d bc 6b 20 1e 3e 52 2c a2 bd 59 fa b8 bc
       -0.019229045 0.15442054 -0.0791861 -0.022580313
0001f0 46 1c b8 bd 5a 7d d6 bc e7 ea 67 bd c5 cf 00 be
       -0.08989768 -0.02618282 -0.056620505 -0.12579258
000200 e2 8f e2 bd 4f f5 92 3c c0 59 dc 3d ca df 4f 3d
       -0.110626 0.017939238 0.10759306 0.05075053
000210 57 b0 c0 3b 0c ff 99 bd 90 74 94 bd c6 08 b6 3b
       0.0058803963 -0.075193495 -0.07248795 0.005555245
000220 99 23 60 3d bf f0 0e 3c 2f 16 87 bd fa 59 22 be
       0.05472145 0.0087243905 -0.06596028 -0.15854636
000230 1c 22 fe bc 5c ba ee bc b3 d8 fc bc 74 af 30 3d
       -0.031022124 -0.029141597 -0.030865049 0.043136075
000240 6c f9 2e bd 41 a6 57 3d 81 24 c4 3a 54 c4 e5 3d
       -0.042718336 0.052648786 0.0014964492 0.11219087
000250 2b ea 03 3e 7f 7d ca 3d 81 35 4b bd 72 fa ae 3c
       0.12882297 0.09887218 -0.049611572 0.021359656
000260 73 d5 65 bd f7 8c be bc 29 d1 a6 bd 63 67 98 3d
       -0.056111764 -0.023260577 -0.08145363 0.074415945
000270 52 d4 a1 3b 12 bd ba bd b0 7e 3d bd c6 e8 c2 3d
       0.0049386406 -0.091180936 -0.046263397 0.09517054
000280 89 43 45 bc e9 e7 8e bd 22 0d 47 bd 4d 39 ba bb
       -0.012040027 -0.06977827 -0.04859651 -0.0056831003
000290 97 55 55 3d 2e 64 11 be 4c 9c e0 3d 16 56 c4 3d
       0.052083578 -0.14198372 0.10967311 0.09586732
0002a0 bc 5a 30 3d b0 8c 3b 3d c4 6d 42 bd b2 8c f3 3d
       0.04305528 0.045788467 -0.047467962 0.1189207
0002b0 0b cf 53 bd 7d 85 15 bd 62 52 79 bb 6c 56 34 3c
       -0.051711123 -0.036504257 -0.0038043489 0.011006933
0002c0 e1 67 8e bd b7 29 3d bd 0d ca 04 3e 66 de 46 bd
       -0.06953407 -0.04618236 0.12967701 -0.04855194
0002d0 5d bc 0b bd 09 41 ed bc bf db 0d bd 2c 3a 6a bd
       -0.034115184 -0.028961675 -0.034633394 -0.057184383
0002e0 3a 74 55 3d 5d 56 fc 3c 5c ab 62 bd d4 91 4a bd
       0.052112795 0.0308029 -0.055339202 -0.04945548
0002f0 15 9d d8 bd 8a 04 4c bd 01 c1 2b bd 79 a7 08 bd
       -0.10576836 -0.049809016 -0.04193211 -0.03336284
000300 24 73 03 bc fc 13 bd 3d 27 35 42 bd b3 e4 1a bd
       -0.008023057 0.09232327 -0.04741397 -0.03781576
000310 30 4f df bd ed 3d d8 bd 97 d6 c9 3a a5 4c 76 bd
       -0.10903776 -0.105586864 0.0015399036 -0.060131688
000320 5e fd d7 3d 1a 7d e1 3b 66 4b ef bb 88 d6 aa bd
       0.10546373 0.0068813683 -0.0073026894 -0.083417
000330 de 86 88 bd 86 1d b2 ba e7 8d aa 3d 24 1f 86 3c
       -0.06666349 -0.0013589121 0.08327847 0.01637227
000340 44 fb 47 bd 45 e2 c7 bd 62 eb fa bd eb cc 9d bd
       -0.04882361 -0.09759954 -0.12251927 -0.077051006
000350 9c 65 e1 3d 6b dc e4 3d 02 0f 32 3c 56 85 03 bd
       0.110057086 0.11174854 0.010867836 -0.03210958
000360 8e 8b 8a 3d b3 d6 b1 3d 22 f7 e0 3d 14 c6 85 3d
       0.06764899 0.08683529 0.10984637 0.06531921
000370 fc 3f cd 3c 5c 14 cb 3d 8c a8 0b 3e a7 7a 43 3d
       0.025054924 0.099159926 0.13638514 0.047724392
000380 56 ec 14 bd c1 e9 60 bb dd f5 0c bc ac 58 da 3d
       -0.0363582 -0.0034319016 -0.00860354 0.10661444
000390 9b ca 84 3c 1d e4 54 bd 19 55 d7 3c c2 32 2a bc
       0.016209891 -0.05197536 0.026285695 -0.010388078
0003a0 a8 50 6c 3c 9d c2 ce bc ec 07 85 3d 85 ee 3e 3d
       0.014423527 -0.025239283 0.064956516 0.04661419
0003b0 51 c0 21 bd db 41 a2 bc 91 6a 78 3d d1 9e 4a bd
       -0.039490048 -0.019806793 0.060648505 -0.049467865
0003c0 5c 19 a0 3c a6 e3 7b 3d 6b 82 c9 3d 7d 93 95 bd
       0.019543342 0.0614964 0.098393284 -0.07303522
0003d0 44 81 bd bc 51 a0 c4 bd df 46 25 3e d1 f6 65 3d
       -0.023132928 -0.096008904 0.16140316 0.056143586
0003e0 9d 78 a0 bc e1 24 83 3d d5 0a 58 bc c0 c8 18 bd
       -0.019588763 0.064035185 -0.013186176 -0.037300825
0003f0 e1 33 fb bd f9 b0 03 bd 7f d4 07 bd 62 99 c6 bc
       -0.122657545 -0.032151196 -0.033161636 -0.02424306

fc1.bias f4 [120]
000000 df 9a ce 3d cf db 14 3e 47 81 d0 bd 40 5f 20 3e
       0.10088133 0.14536975 -0.10180908 0.15661335
000010 c5 e7 09 3e 23 0a 09 3e f3 1c 25 be ac db 58 3e
       0.1346732 0.13382773 -0.16124325 0.21177548
000020 35 c5 83 3e 53 bc ff bc 38 3b a3 3d 43 3e 0c 3e
       0.25736395 -0.03121773 0.079702795 0.13695626
000030 95 7c 25 3e 7b 82 4a 3d 76 b4 04 3e 08 71 8f be
       0.16160806 0.049440842 0.12959465 -0.28015924
000040 b2 b5 b1 bd 7f b4 d6 3d 2f f6 5c bd a4 78 f6 3d
       -0.08677234 0.10483646 -0.053945716 0.12034729
000050 96 dd 3f bc 0c 01 8d 3e de a0 c8 3e 88 45 3d 3e
       -0.011710545 0.2753986 0.39185232 0.18483555
000060 25 28 0e 3e 96 c9 58 3c f2 51 08 bd 65 f7 f4 3d
       0.13882501 0.013231656 -0.033281274 0.11961249
000070 84 44 1e bc 3a 35 78 3c 23 d2 f1 bc 31 3f a8 bd
       -0.00965989 0.015149409 -0.029519146 -0.08215178
000080 c7 5f 9a 3d 50 9a 75 3e aa ac 53 3d ca 70 e6 bd
       0.07537799 0.23984647 0.051678337 -0.112519816
000090 f5 f0 1a bd de 86 22 be e8 8e b5 bd c9 9e e7 3c
       -0.03782745 -0.1587176 -0.08865148 0.028273957
0000a0 b4 44 b1 bc 0b dd f3 3e 68 40 5c be 6d d2 4f 3e
       -0.021639206 0.4762958 -0.21508944 0.20295115
0000b0 98 70 0a bd b6 08 3b 3e f7 53 30 bc 0c 57 cf 3e
       -0.033798784 0.18265042 -0.010762206 0.404961
0000c0 bc 97 eb bd 64 0f 15 3e b7 a6 38 3e a1 f0 87 3d
       -0.115035504 0.14556652 0.18032347 0.06637693
0000d0 26 92 ff 3d 5b 8d 95 3e cb 31 92 3e a8 9e 7d be
       0.124790475 0.29209408 0.28553614 -0.24767554
0000e0 8a 1b 96 bd 34 1f 7b be 84 bd 1a 3d 70 6e 1f be
       -0.073294714 -0.24523622 0.037778392 -0.15569472
0000f0 58 40 11 be aa 0c d5 3e 74 23 07 3e f6 d8 1c be
       -0.14184701 0.41611224 0.13197118 -0.15317139
000100 b9 85 d2 bc 15 2a b7 3d 60 af 2a 3d c1 7c 60 be
       -0.02569853 0.089435734 0.041671157 -0.2192259
000110 62 49 75 3d e0 d5 59 be 78 ec 60 3d 7a 0c 1c 3c
       0.059884436 -0.21272993 0.054913014 0.009524459
000120 7d 15 55 3d 51 9c 39 be e2 24 82 3e b1 07 45 be
       0.052022446 -0.18126036 0.25418764 -0.19241215
000130 6a 1c 5e 3d 08 a4 d6 3e 4e 91 69 be 63 ab cb 3e
       0.054226317 0.4192202 -0.22809336 0.39779195
000140 e4 de b6 3e fc e3 32 be cb f3 35 be 60 57 77 be
       0.35716927 -0.17469782 -0.17768781 -0.24154425
000150 c8 dc 0d 3d 0b 5a d2 bb ba 25 0e 3d e0 a1 fc 3c
       0.03463438 -0.0064194254 0.034703948 0.030838907
000160 35 dc a4 3e 55 db 9d 3d e7 6a 8f bd 26 32 ab bd
       0.32199255 0.0770785 -0.07002812 -0.083591744
000170 54 73 b4 3c e0 c4 25 be 87 8c cb bd 4a d7 24 be
       0.022027649 -0.16188383 -0.09938913 -0.16097751
000180 9f b6 1f be 8f 53 c7 3d 4e aa b3 bd 3a d4 b5 bd
       -0.15597008 0.097327344 -0.087727174 -0.0887837
000190 62 a3 21 3e 2a d0 78 3e ce 97 ad bd f7 78 93 be
       0.15784982 0.24298158 -0.0847622 -0.28803226
0001a0 50 e4 2a 3e f5 d1 0e 3d c9 44 e5 bc aa ca b5 3c
       0.16688657 0.0348682 -0.0279869 0.022191364
0001b0 2b 3d 9f 3b d1 a4 cc be 03 1b f5 bc 97 41 eb 3c
       0.0048595867 -0.39969495 -0.029920107 0.0287178
0001c0 5d 65 b4 bd 75 fe 21 3e 5d d3 1d be 0b 1d 39 bb
       -0.08808396 0.15819724 -0.1541266 -0.002824607
0001d0 1f 03 b9 bc 81 f9 88 3e cd 29 82 3d 00 5a 0c 3e
       -0.022584496 0.26752856 0.06355629 0.13706207

fc2.weight f4 [84, 120]
000000 fa 7c b3 3d af 01 f5 bd 5f 6e 8f bd b2 a7 f7 3d
       0.08764072 -0.11963212 -0.070034735 0.12092532
000010 99 42 22 bd e3 45 88 bd 10 6f 49 bc 68 92 d4 ba
       -0.039614294 -0.06653955 -0.012294546 -0.0016217949
000020 f4 44 9d 3d 88 a4 a3 bd d3 fc 98 3b 04 bb c1 bd
       0.076791674 -0.07990366 0.004668811 -0.094594985
000030 b6 1d 56 3e e5 cd 32 3d fb 8d 28 3e fb ec fd 3d
       0.20909771 0.043653388 0.16460411 0.12398716
000040 87 89 dd bd 6a 8f 36 3e e2 91 5b 3c 6f 87 f3 ba
       -0.10817247 0.17828146 0.01340148 -0.0018579791
000050 b4 31 5e bd f9 b6 7a 3e 44 17 b5 3d 2e 9f 5a 3d
       -0.05424662 0.24483861 0.08842328 0.05337446
000060 2c b1 3e 3d b5 6e 46 bd cc d9 f6 bc 0f e5 72 bd
       0.046555683 -0.048445422 -0.03013315 -0.05930048
000070 62 70 c5 3d 81 dc ba bd 7c 44 a4 bd 46 d5 bb 3c
       0.09640576 -0.09124089 -0.08020875 0.022928845
000080 76 c3 a5 3c d9 c5 77 bd 9d 4d b6 bc e5 ef 7d bc
       0.020234805 -0.060491417 -0.022253806 -0.01549909
000090 c7 2a 89 bd 69 fb e3 3c 1f 87 66 3d d0 5f 26 3b
       -0.06697612 0.027829843 0.056281205 0.0025386699
0000a0 08 ae 92 3d ed 83 2f 3c 8d c0 19 be c1 4a 1e 3d
       0.071621 0.010712606 -0.15014859 0.03864551
0000b0 2e d3 ba 3d 14 2f ac 3a 9c 43 68 3c 32 39 d5 3d
       0.091223106 0.0013136589 0.014176276 0.104113
0000c0 8a 36 48 be db 96 9f bd 16 29 03 be e0 1f f7 bd
       -0.19552055 -0.07792445 -0.12808642 -0.120666265
0000d0 61 05 26 3d bc e3 c5 bd b7 10 94 3d aa c6 02 be
       0.040532473 -0.096625775 0.072297506 -0.12771097
0000e0 d6 40 1a be 48 6d 8f 3b d9 de 46 be c5 c4 bc 3d
       -0.15063795 0.004377041 -0.19420947 0.09217218
0000f0 11 58 37 be e4 eb 2a bc 26 38 6e bc 65 92 30 bd
       -0.17904688 -0.010432217 -0.014539754 -0.043108363
000100 b3 04 96 bd e4 11 16 3d f6 e0 55 3b 16 0e ab bc
       -0.07325115 0.036638156 0.0032635308 -0.02088074
000110 f6 62 a5 ba 25 76 c1 3c 9c b9 aa bd 3c f1 eb 3a
       -0.0012617994 0.023615906 -0.083361834 0.0018000971
000120 bb da b4 bd be bf c6 bd f2 74 0f 3d 3d 64 96 bd
       -0.08830782 -0.09704541 0.035023637 -0.07343338
000130 c7 9e d5 bd 7b d3 6b bd 3b b5 df 3c bd 93 40 3d
       -0.10430675 -0.05757473 0.027308097 0.047015894
000140 3b f5 8f 3d 05 47 85 bd 9c d0 11 3d 6a dd b9 bc
       0.07029196 -0.065076865 0.035599336 -0.022688586
000150 2d 06 fd 3b b3 2c a9 3d f3 69 6e bd 96 e6 c8 3d
       0.0077216835 0.08260479 -0.05820651 0.09809606
000160 01 03 ab bd dd 0c 23 be 2c d5 7b 3d 41 5c 78 3c
       -0.08350182 -0.15922876 0.061482593 0.015158714
000170 0c 0e 3f be a2 fb 23 bd 4a 62 8e bd 71 ef 23 be
       -0.18657702 -0.040034898 -0.06952341 -0.16009308
000180 d9 2e 84 be 91 f1 d8 bd 9c fc 02 be d9 4c c7 bc
       -0.25816992 -0.1059295 -0.12791675 -0.024328636
000190 e0 69 0d 3d 18 84 4f 3e d8 91 c7 bd 2e c4 4c be
       0.0345248 0.20265234 -0.09744614 -0.19996712
0001a0 61 34 70 3b 99 08 1d bc 28 6c 30 bc 51 f9 25 be
       0.0036652314 -0.009584569 -0.010767974 -0.16208388
0001b0 b3 3b 96 bc 55 ff 83 3d 8b 7c a2 bd fd d5 82 3c
       -0.018339014 0.06445185 -0.07933911 0.015971178
0001c0 d0 94 4c bc 4d ed 79 3d d9 27 bb bd 73 b3 3d be
       -0.012486652 0.061017323 -0.0913846 -0.18525486
0001d0 1f f8 8b 3d b9 10 0e bc 7a 59 e7 bd 8f bb 94 bd
       0.06834435 -0.008670979 -0.11296363 -0.072623365
0001e0 6b 0c eb bb b2 c5 07 be e5 29 08 bd 43 a0 8b bd
       -0.007173111 -0.13259009 -0.03324308 -0.06817677
0001f0 32 55 ce bc 5d 4f 58 bd b7 5e ed bc 51 3b b8 3d
       -0.025187109 -0.05281006 -0.028975828 0.08995689
000200 05 da 78 bd f1 f4 cd bd 27 a5 2c be 4d df a1 bd
       -0.060754795 -0.100564845 -0.16859876 -0.07903919
000210 49 76 06 3c 7e 3c 0d bd 06 aa 49 bd 6a 09 9a bc
       0.008206912 -0.034481518 -0.049234413 -0.018803317
000220 0e 5f 6f bd e8 08 90 bb cd 8c d9 bd 83 78 21 3d
       -0.05844026 -0.004395593 -0.10622559 0.03942157
000230 b9 d5 fd bb ca f8 bc bc 02 a6 06 be a5 33 48 be
       -0.007746425 -0.02306785 -0.13149264 -0.19550951
000240 e1 42 04 3d 95 8d c8 3c 7b 68 99 3c 91 f2 10 bd
       0.032290343 0.024481574 0.018726578 -0.03538758
000250 57 39 f4 bc 0d 20 66 be 5f d3 54 3d d7 01 bc 3d
       -0.029812498 -0.22473164 0.05195939 0.091800384
000260 73 87 1a 3e 06 e1 e3 bd 18 1f 4e bd 4d a2 a5 3d
       0.15090732 -0.11126904 -0.050322622 0.08087597
000270 36 44 4e bd 5e 5f ad be c1 8c f9 bc 53 3e 41 3d
       -0.05035802 -0.33861822 -0.030462625 0.047178578
000280 dc 5e f5 3c 2b cc 4e 3d 6c f7 30 3d 64 66 ed bd
       0.029952459 0.05048768 0.04320471 -0.11591795
000290 4e f1 eb bc fc 49 f4 bc fc 7a a3 bd 46 eb 7b 3a
       -0.028801586 -0.029820435 -0.07982442 0.00096099486
0002a0 f9 65 f3 bc 35 98 a9 3d 9d 3c f5 bd 60 7c e4 3c
       -0.02971171 0.08280984 -0.11974452 0.027891338
0002b0 d6 9c e7 bd c9 a8 ce 3d ce b1 92 bd ad ae ea 3c
       -0.11309211 0.10090787 -0.0716282 0.028647745
0002c0 7a b7 4e bc c0 67 ea bd a0 50 2c be 6d 00 bf 3c
       -0.012616986 -0.1144557 -0.16827631 0.023315633
0002d0 19 34 13 be eb 67 0d be 6e d5 25 be e1 98 5f 3d
       -0.14375342 -0.13809173 -0.16194698 0.054589156
0002e0 60 9d 84 bd f6 a0 bb 3d 8d e6 c8 3d 74 57 48 bd
       -0.064753294 0.0916156 0.09809599 -0.048911527
0002f0 fc a1 14 be 97 94 dd 3d 17 ea 83 bd 4a f3 3f bd
       -0.14514917 0.10819357 -0.064411335 -0.046862878
000300 ae 91 ac 3a 10 7b 7b 3e 3e 2e ec bc 16 be 8b 3e
       0.0013165975 0.24558663 -0.028830644 0.27293462
000310 9c dd ae bd d5 fa da bd 7e da b8 3d c8 7e b1 3d
       -0.085383624 -0.10692374 0.09026049 0.0866676
000320 51 0c 86 3c d3 5d cc bb dc e3 6e bd ea b1 2e 3e
       0.016363295 -0.0062367707 -0.058322772 0.17060056
000330 6f ad ce bd aa ea d8 bd 9f 93 b9 bd dd da 89 bd
       -0.100916736 -0.105916336 -0.090613596 -0.06731198
000340 2f c4 20 3e 8d d3 e7 bc da 95 a9 3d 73 04 74 bc
       0.15699838 -0.028299117 0.08280535 -0.014893639
000350 d9 da 3f bd e0 bd 67 3d b4 58 28 3e b1 92 7b 3c
       -0.04683957 0.056577563 0.16440088 0.015354798
000360 4e 01 31 be ff 11 98 3d c0 9c af bd 92 1a 0f be
       -0.17285654 0.074253075 -0.085748196 -0.1397498
000370 a1 62 14 3e 6c 4c 7a bd bb 21 3f be 5c ae cf bd
       0.14490749 -0.061108038 -0.18665211 -0.10140678
000380 04 e1 0e 3d 6f 54 ed 3d 70 89 32 3e 69 4c 27 bc
       0.03488256 0.1158837 0.17435241 -0.010211089
000390 be e3 be bd 59 0d 2f bd d9 db a7 3c d7 47 97 bc
       -0.09320782 -0.04273734 0.020490574 -0.018466873
0003a0 36 ad c7 bc fb 3a 03 bc 33 ed 1c 3c 83 42 29 be
       -0.024374586 -0.0080096675 0.009578037 -0.16529278
0003b0 d0 d6 5f bc 75 9a 61 be 60 6b dd bd f0 9b cc bd
       -0.013662055 -0.22031577 -0.10811496 -0.0999068
0003c0 16 c7 82 3c 00 c9 f5 bd 6b 9a b3 bd 98 fd d4 bd
       0.015964072 -0.12001228 -0.08769687 -0.10399932
0003d0 6a d5 0b bd 57 b0 89 bd 24 9a ac 3d bd 1d 80 bb
       -0.034139074 -0.06723087 0.084278375 -0.003909795
0003e0 d9 18 2f 3d 77 f1 10 bd 07 5a 9d 3c 31 d7 22 be
       0.042748306 -0.03538653 0.019207967 -0.15902402
0003f0 5a 01 34 bd 28 51 3d bd ce 7d 09 bd 6b 1d 0d 3c
       -0.0439466 -0.046219975 -0.033567242 0.008612971

fc2.bias f4 [84]
000000 ed 3e 44 3d 42 cd d3 3d 9c d1 5c 3d 5f 89 22 bd
       0.047911573 0.10341884 0.053910837 -0.03968179
000010 e3 d7 74 3e bb e2 ae 3e 55 93 48 3f 12 61 cd 3d
       0.23910479 0.34157357 0.7834981 0.1002828
000020 ac 83 2e 3e df d3 d6 3e 90 df eb bd 28 3b 70 3e
       0.17042416 0.4195852 -0.115172505 0.23460066
000030 7e 7d 18 bf 36 99 31 be 11 19 9a 3f 2c 20 cb 3e
       -0.59566486 -0.17343602 1.20389 0.39672983
000040 10 38 ea bd 59 12 f9 3e 29 d5 7e 3c 58 50 22 3e
       -0.11436474 0.4864681 0.015553751 0.15850961
000050 86 13 4e bd 03 9e 40 3f fd a4 42 3f 24 a1 19 bd
       -0.050311588 0.75241107 0.76033 -0.03750719
000060 3c c9 2e be b9 cf 82 3d 6d 3e 41 3c ae be 66 3d
       -0.17068952 0.06387276 0.011794669 0.05633419
000070 3a 3a 1a 3e 0c 5f 4b 3b 7d d5 a3 bd 3a 2a db be
       0.15061274 0.0031031994 -0.07999704 -0.42805654
000080 c9 76 58 3f fd e2 7b 3d 51 d7 35 bc da dd c4 3e
       0.8455625 0.06149577 -0.011098699 0.3845051
000090 76 b4 af bd d0 82 cd 3e 56 f4 6a 3e b2 a9 28 3f
       -0.08579342 0.40138865 0.2294477 0.65883934
0000a0 44 2b 9b 3f 7c 98 ae bc 1f c4 eb 3e 98 39 cc bc
       1.2122579 -0.021312945 0.46048066 -0.024929807
0000b0 b8 07 88 3d 18 d5 69 bd 69 a6 9c 3e 1f 7c d3 bc
       0.06642097 -0.057087988 0.3059571 -0.025816021
0000c0 8e 97 cb 3e 58 3f b2 bd e2 57 87 bd 24 92 38 3d
       0.39764065 -0.08703488 -0.06608559 0.045061246
0000d0 69 f6 a9 3e 2f b0 45 be 14 47 2f 3d 6c 44 11 be
       0.3319581 -0.1930549 0.042792395 -0.14186257
0000e0 76 c8 98 bd 99 28 46 3f 85 24 08 3f 7d f0 72 3f
       -0.0746011 0.774057 0.53180724 0.94898206
0000f0 9f 88 9c 3e 02 55 c0 bd 82 e1 f3 bb e8 8a 31 3f
       0.30572984 -0.09391214 -0.007442654 0.6935258
000100 7c 73 d2 3e ad 56 a1 3e ce 99 b3 bd 2e fd 9a 3e
       0.41103733 0.3151144 -0.0876957 0.30271286
000110 2e 8e fb 3e a1 7c c5 bd 20 8c 77 be bd 55 36 bd
       0.49131912 -0.09642912 -0.24174547 -0.04451536
000120 46 f2 93 3c 8d 94 5c bd 7a 4a a6 3e 87 83 6b 3e
       0.01805986 -0.053852607 0.32478696 0.22999392
000130 3e 3c a8 bc a8 e8 06 be e3 84 53 3d 44 84 75 3f
       -0.020536538 -0.13174689 0.051640403 0.95904946
000140 69 4d a2 3e 9d 22 a9 3d 34 8d 37 3f b1 6f 8d bd
       0.31699684 0.08258555 0.71699834 -0.06906069

fc3.weight f4 [10, 84]
000000 c6 36 2f be bd f0 4b be a2 af 01 be 1c e3 16 3e
       -0.17110738 -0.19916053 -0.12664655 0.14735073
000010 26 b7 5a be d8 5f 77 bd 7f ad 16 3d 2b 27 88 bd
       -0.21358928 -0.060394138 0.036786553 -0.06648096
000020 09 76 a6 bd 32 1b 4f 3e 1a 15 eb 3d a4 f4 28 3e
       -0.08127982 0.20225218 0.11478634 0.16499573
000030 08 41 2f 3e 06 b7 72 3e 0b 88 40 bc ac d7 98 be
       0.17114651 0.2370263 -0.011751185 -0.29852045
000040 77 a9 f5 bd b8 01 a0 3e 44 1f 61 3c 79 ba c4 3d
       -0.119952135 0.3125131 0.013740364 0.09605879
000050 b0 0a 6b bb b5 86 24 3e f8 2b 7f be 94 44 4d be
       -0.0035864525 0.16067012 -0.24919116 -0.20045692
000060 1f 48 f5 3d 60 6f 8c 3d a1 ab 6a be ae b6 28 bd
       0.11976647 0.068571806 -0.22917034 -0.041189842
000070 60 0f 2a 3e ea 8e f2 bc cf 0f 8f 3c 9e 36 4e bc
       0.16607428 -0.029609162 0.017463593 -0.012586264
000080 94 9b 7b be 45 45 22 be de aa 87 3d 85 f3 2a 3d
       -0.24571067 -0.15846737 0.06624387 0.041736145
000090 f4 31 95 bd 24 8e 28 be df 6a 21 3e 9e 7b 22 bc
       -0.072849184 -0.16460472 0.15763424 -0.009917168
0000a0 db 30 5e be cf f1 0a be 41 63 94 bd 88 53 8e 3c
       -0.21698324 -0.13568805 -0.07245494 0.017373815
0000b0 6c 90 d1 3d db fc e0 bd 75 01 ed 3d 1f 00 9a 3e
       0.102326244 -0.10985728 0.115725435 0.30078217
0000c0 c0 43 04 be 30 21 e2 3d f8 5e ca bc 4c 11 dc 3d
       -0.1291647 0.11041486 -0.024703488 0.107454866
0000d0 e7 e9 9a 3d 65 29 71 3e 0d 12 36 3c f3 fa 33 3d
       0.075641446 0.23550947 0.011112702 0.043940496
0000e0 58 eb 32 be e1 2a 7d 3e 76 94 ac be c1 70 86 be
       -0.17472589 0.24723388 -0.33707017 -0.262579
0000f0 73 12 1b 3e 83 ce 0c 3e 2c 9b 0b be c9 af 02 bd
       0.15143757 0.13750653 -0.13633412 -0.031905923
000100 30 43 e1 bd 5f 56 2f be 75 02 91 be fc 6f 3b 3e
       -0.10999143 -0.17122792 -0.28322187 0.18304437
000110 99 6e b3 bc 06 ff 40 be 59 c6 10 3e 68 05 96 3d
       -0.021903323 -0.18847284 0.14138164 0.0732525
000120 d7 8a 1c 3e 21 7d bb 3d 71 35 8a 3d de 68 e4 3c
       0.15287338 0.09154726 0.067484744 0.027882036
000130 43 ce 74 3e c2 ec 5c 3e f6 27 1b 3e a6 13 08 bf
       0.23906808 0.21574691 0.15151963 -0.5315498
000140 ab d5 ae be 56 3f c0 bd 7b 2b 1e bc 9b 30 00 3e
       -0.3414739 -0.0938708 -0.009653921 0.12518542
000150 a7 bc 33 3e 5b e1 08 bc 3c 05 2b be a7 a0 bb bd
       0.17552434 -0.00835451 -0.16701216 -0.091615014
000160 9f 05 b8 be 93 c0 05 3e 9b ae 97 be 3a 15 39 be
       -0.3594179 0.13061742 -0.296254 -0.18074504
000170 7b 06 72 3c 88 3b 46 3e 1b a7 b0 3e 44 31 22 3e
       0.014772053 0.19358647 0.3450249 0.15839106
000180 60 b7 5a 3e ab cf 66 be 34 63 cd be 37 db 94 bd
       0.21359015 -0.22540157 -0.40114748 -0.072683744
000190 85 22 45 3e 39 fe 99 3e 58 4b d8 bd f0 50 19 3e
       0.1925145 0.3007677 -0.10561246 0.14972281
0001a0 76 8b c9 3e 34 19 62 3d a6 2b 98 be 5f b9 70 3e
       0.39364213 0.055199817 -0.297208 0.23508213
0001b0 c3 dc 44 3e d1 ee 39 bd bb eb 28 3d 2b 7a b1 bd
       0.19224839 -0.04539377 0.041240435 -0.0866588
0001c0 27 91 8e bd ca c1 01 3e 91 2e 90 3c 02 ab 19 3e
       -0.06961279 0.12671581 0.01760033 0.1500664
0001d0 97 0e 05 bf cc ab c2 3b 19 04 4a 3d 83 dd 67 bd
       -0.5197539 0.00594089 0.049320314 -0.056607734
0001e0 d5 e4 e0 3c da 7a a3 bd fd c9 c6 3d 3f cb 58 be
       0.027452866 -0.079824165 0.09706495 -0.21171282
0001f0 42 1c 6c be 73 d0 d6 3d fa 3c 27 be 13 36 d7 bd
       -0.23057655 0.10488977 -0.16331854 -0.10508361
000200 74 1a f5 be 12 b5 7f 3d ff 05 a8 bd de 46 ca bd
       -0.47871745 0.06242854 -0.08204269 -0.09876798
000210 06 33 a5 3d bf fc dd 3d f3 97 3c 3e c2 a6 e1 be
       0.080663726 0.10839223 0.18417339 -0.4407254
000220 7b 94 39 be de ce 78 be 7a 9f 16 3e e8 e6 26 3e
       -0.18123047 -0.24297664 0.14709273 0.16299021
000230 4f 61 cd bb d8 1f 3d bd 3f ba ae bd 7b 9f 10 be
       -0.0062677036 -0.046172947 -0.085316174 -0.14123337
000240 4a 33 04 be 5b 5c 47 3e b8 ac a5 3e 53 4e cc bd
       -0.1291019 0.19468825 0.32358336 -0.09975877
000250 45 d3 00 3d ff f0 35 3e 58 c6 20 bb ad 64 33 be
       0.031451482 0.17767714 -0.0024532285 -0.17518874
000260 53 d7 cc 3d 1d 11 70 3d aa a6 44 be 95 f2 15 3e
       0.10002007 0.05861007 -0.19204202 0.14643319
000270 70 17 58 3e da f6 b4 bd fc 0a 40 be 47 b5 b6 3d
       0.2110269 -0.08836146 -0.1875419 0.08921295
000280 a9 3e fa bc e3 a3 7d 3c 07 30 37 3e b0 f0 28 3d
       -0.030547457 0.015480968 0.17889415 0.041245162
000290 57 27 8b be 16 37 6b 3d 04 1f 35 be 8d 8d c7 3c
       -0.2717845 0.05742558 -0.17687613 0.024359489
0002a0 76 dc 07 3c 10 76 ed bd 0f fe 51 3d 84 97 06 be
       0.008292308 -0.11594784 0.05126768 -0.13143736
0002b0 54 c3 ec 3d 48 d7 60 bd 46 1e 1c 3e 1f 3b 07 3e
       0.115606934 -0.05489281 0.15245923 0.13206147
0002c0 0d a2 68 3d 1b 35 8a bd 90 11 eb 3b 53 2c a9 bc
       0.05679517 -0.0674841 0.0071737245 -0.020651018
0002d0 ca 1e 4d 3e 60 50 1a 3e c8 0c 0c bd 3a 7d cd 3d
       0.20031276 0.15069723 -0.034191877 0.10033651
0002e0 5a 81 e7 3d d0 82 1c be 32 6a 08 3e dc 96 91 bc
       0.11303969 -0.15284276 0.1332176 -0.01777213
0002f0 65 7c 32 be 98 34 a9 bd 33 ad c8 3d be 97 16 be
       -0.17430265 -0.082619846 0.0979866 -0.14706323
000300 1f 85 4f 3d 5b 82 1f 3e fb 69 14 3e ed a2 51 bd
       0.050664064 0.1557707 0.14493553 -0.05118077
000310 f1 c9 9f bd 32 45 18 bd a4 34 60 3d 16 d0 46 3e
       -0.07802189 -0.037175365 0.054737702 0.19415316
000320 13 d3 7e 3e f0 47 4a be 69 d0 b6 3b eb 12 9b 3d
       0.24885206 -0.19754004 0.0055790436 0.07571968
000330 5d c0 aa bd 1c d3 4c 3e 03 30 39 be 0c f9 d4 3d
       -0.08337472 0.20002407 -0.18084721 0.103990644
000340 2f 4b d4 bd 2d ef d4 3d c4 b3 40 3e 4f ad 75 bd
       -0.10365903 0.10397182 0.18818575 -0.059979733
000350 90 92 21 3e 62 08 04 be b9 99 63 3e fa 61 ec 3d
       0.15778565 -0.12893823 0.2222661 0.11542125
000360 75 58 14 be f0 f2 f0 3b d4 5c af bd ac 7e 06 3e
       -0.14486869 0.007353179 -0.085626274 0.13134259
000370 83 c8 f6 bd 8a 98 8e 3e 89 ab 91 bc 37 aa 44 3d
       -0.12049963 0.27850753 -0.01778199 0.048013892
000380 36 8a 83 3e 5d 1d 09 bd ba 8f 30 3e 48 24 cc 3d
       0.25691384 -0.03347527 0.17242327 0.099678576
000390 a7 d7 86 3e 19 a5 37 be d5 b6 0b be 0c e7 aa bd
       0.26336405 -0.17934074 -0.13643964 -0.0834485
0003a0 ce 05 da bb ed ff c3 bd 7d 1e 80 3e 67 c4 91 3e
       -0.006653524 -0.09570298 0.2502326 0.28470156
0003b0 54 20 41 be fc b9 40 3d 34 c5 57 3e ea 8c b7 3d
       -0.18859988 0.04705237 0.21071321 0.08962424
0003c0 cd 5f 1f be f1 c4 e0 bb 4a 94 f1 3d 91 0f 05 be
       -0.15563889 -0.0068594147 0.11795862 -0.1299422
0003d0 e1 21 16 be 63 d8 17 3e f2 c0 40 be cb 41 dc bd
       -0.14661361 0.14828639 -0.18823603 -0.107547365
0003e0 76 45 16 3e 69 79 9a bd cc 36 f6 3c 0e c0 fc bd
       0.14674935 -0.075426884 0.030055426 -0.12341319
0003f0 ca 8f 0c 3b 42 85 dc 3d f3 b4 e9 3d 42 ed 77 bd
       0.002144801 0.107676044 0.114114664 -0.060529
