cifar10-weightsonly/saved-models/cifar_net_e2.pth (torch, 262720 bytes, 9 tensors)

conv1.weight f4 [6, 3, 5, 5]
0.17216143 0.19720662 -0.0121189 -0.008202648 0.19110817 0.06144017 0.15480655 0.36508027
0.20892912 0.27705052 0.13744557 0.38161036 0.5117326 0.38032204 0.014335318 -0.24881667
-0.24533816 -0.23162258 -0.15288615 -0.20450103 -0.26826435 -0.44795123 -0.4940994 -0.5030581
-0.22217669 0.09413466 -0.08251448 -0.11221882 -0.136248 -0.020597437 0.072750114 -0.0555072
0.1844116 0.17083539 0.07676583 0.14417979 0.38648295 0.42881078 0.36735544 -0.0003093818
-0.061944425 -0.19613944 -0.3601366 -0.3052856 -0.2976856 -0.13716687 -0.42582682 -0.343985
-0.36511225 -0.18839009 0.14223059 -0.12977518 -0.3084067 -0.14261423 -0.24404684 -0.08597614
-0.31599042 -0.22321737 0.02996571 -0.029604968 0.18730392 0.3663088 0.39068913 0.20609076
-0.032511197 0.17986389 0.1514171 -0.08553593 0.13628553 -0.01912518 0.14016894 -0.012855495
-0.047419555 0.26690617 0.2675217 -0.098935165 -0.15073259 -0.015038815 0.035371035 0.16418417
-0.24801657 -0.13252625 -0.014677462 0.109404705 0.04430692 -0.13341527 -0.14648002 -0.11139091
0.008873396 0.038239982 -0.062793896 -0.035382662 -0.11229727 -0.07418005 -0.040330112 -0.09707708
0.13039392 0.13906191 -0.027599456 -0.049117923 -0.124087445 -0.110800795 -0.06047442 0.02420412
0.022587793 -0.23799422 -0.16792914 -0.09288723 0.018433368 -0.007780502 -0.22833653 -0.06956803
-0.043698497 0.0006424658 -0.026945755 -0.23472686 -0.10342009 0.004738693 0.0381599 -0.05064314
0.012979148 0.051140025 -0.014727509 -0.031675905 0.06546887 -0.034994964 0.04566461 0.20887029
0.2836762 0.22805113 -0.03369941 0.05249061 0.1015888 0.30994764 0.2593666 -0.16474944
0.11086142 0.3241577 0.30758148 0.21027735 0.029338768 0.0071159583 0.20067859 0.2613283
0.13821624 0.030308357 -0.002254552 0.15793656 0.20160627 0.035980336 0.10404869 0.1652921
0.23295645 0.2167729 0.13639343 0.2905022 0.33474645 0.2566077 0.15308163 0.17983569
0.2104455 0.2995087 0.25905603 0.20677589 0.0113908965 -0.011380161 0.1295166 0.17533232
0.095076405 0.034175843 -0.09514022 0.02850833 -0.06942888 -0.038592856 -0.11401049 -0.25933784
-0.25534227 -0.33635917 -0.35355252 -0.3608477 -0.20747782 -0.25564733 -0.25220665 -0.28079057
-0.3954491 -0.121836215 -0.02455739 -0.20987174 -0.33533624 -0.35199475 -0.050901733 -0.051962253
-0.08598611 -0.19443184 -0.2548161 -0.0023301993 0.07277152 -0.0225689 -0.19380265 -0.17367314
0.13842921 0.025901347 -0.18709427 -0.07491417 0.0012606898 0.038282584 0.115035184 -0.0658883
-0.09956141 -0.17637292 0.13746832 0.02329732 -0.026510265 -0.05407682 -0.19425312 0.116581514
0.22575065 0.10596159 -0.042139485 -0.0084955655 0.19315013 0.27370358 0.2641175 0.16042823
0.10340038 -0.12924235 -0.03445012 -0.025341878 -0.0010036157 0.18825768 -0.06568896 -0.011262491
-0.113753155 -0.032899093 0.1426684 0.121700674 0.20967087 -0.024565369 -0.40720454 -0.046135243
-0.024546426 0.4311144 0.107708834 -0.42648837 -0.20490524 0.14124164 0.19608314 -0.041801468
-0.33807638 0.016448246 -0.13808465 0.027764339 -0.11613266 -0.034306325 0.17750968 0.022286303
00000000: 164b 303e 88f0 493e 5a8e 46bc 6664 06bc
00000010: dcb1 433e b0a8 7b3d 9c85 1e3e cdeb ba3e
00000020: 84f1 553e 91d9 8d3e 88be 0c3e 6f62 c33e
00000030: e800 033f 92b9 c23e aede 6a3c ccc9 7ebe
00000040: ed39 7bbe 782e 6dbe 308e 1cbe b868 51be
00000050: f259 89be dd59 e5be 99fa fcbe 6ac8 00bf
00000060: 4982 63be acc9 c03d 5afd a8bd fbd2 e5bd
00000070: 9984 0bbe f5bb a8bc 03fe 943d 855b 63bd
00000080: 65d6 3c3e 79ef 2e3e 6737 9d3d dea3 133e
00000090: 18e1 c53e 168d db3e 0316 bc3e 8634 a2b9
000000a0: 70b9 7dbd c7d8 48be d363 b8be 654e 9cbe
000000b0: 3f6a 98be 7975 0cbe f905 dabe cd1e b0be
000000c0: feef babe 55e9 40be e5a4 113e c9e3 04be
000000d0: 7ce7 9dbe 7709 12be 6ae7 79be 4214 b0bd
000000e0: 7fc9 a1be 1893 64be a67a f53c 1e86 f2bc
000000f0: 99cc 3f3e d48c bb3e 6808 c83e 7509 533e
00000100: 762a 05bd 3d2e 383e 160d 1b3e 762d afbd
00000110: 6f8e 0b3e 69ac 9cbc 7288 0f3e db9f 52bc
00000120: 023b 42bd eda7 883e 9bf8 883e 859e cabd
00000130: a559 1abe 5d65 76bc 38e1 103d e51f 283e
00000140: 0ef8 7dbe f6b4 07be bd79 70bc 930f e03d
00000150: 2c7b 353d 039e 08be dcfe 15be eb20 e4bd
00000160: b861 113c 87a1 1c3d 169a 80bd 69ed 10bd
00000170: 1cfc e5bd b6eb 97bd 3031 25bd 59d0 c6bd
00000180: fc85 053e 3f66 0e3e 4118 e2bc e02f 49bd
00000190: 8f21 febd 87eb e2bd 07b4 77bd b847 c63c
000001a0: 090a b93c c2b4 73be 9ef5 2bbe a93b bebd
000001b0: 9301 973c 95f3 febb 0dd1 69be af79 8ebd
000001c0: 32fd 32bd 266b 283a 58bd dcbc 3d5c 70be
000001d0: eacd d3bd 0a47 9b3b 8e4d 1c3d 2e6f 4fbd
000001e0: 7ea6 543c 3478 513d a64b 71bc 98be 01bd
000001f0: 8b14 863d e156 0fbd d00a 3b3d 18e2 553e
00000200: 023e 913e 3c86 693e 6408 0abd 6500 573d
00000210: ca0d d03d 75b1 9e3e b3cb 843e 14b4 28be
00000220: 500b e33d 00f8 a53e 527b 9d3e f252 573e
00000230: db57 f03c fc2c e93b b07e 4d3e d3cc 853e
00000240: 8f88 0d3e 3b49 f83c 1bc1 13bb 1fba 213e
00000250: e071 4e3e 1e60 133d 7b17 d53d 5542 293e
00000260: 238c 6e3e b7f9 5d3e b8aa 0b3e b4bc 943e
00000270: e363 ab3e 1662 833e 6ec1 1c3e d926 383e
00000280: 067f 573e 3459 993e fea2 843e 0fbd 533e
00000290: e2a0 3a3c db73 3abc 00a0 043e 518a 333e
000002a0: 6bb7 c23d f8fb 0b3d e0d8 c2bd 4d8a e93c
000002b0: bb30 8ebd 8b13 1ebd 557e e9bd eec7 84be
000002c0: 39bc 82be 4537 acbe d604 b5be 08c1 b8be
000002d0: 1175 54be 35e4 82be 3b21 81be c8c3 8fbe
000002e0: 4e78 cabe 4485 f9bd 942c c9bc 9ee8 56be
000002f0: 31b1 abbe a838 b4be 567e 50bd 5fd6 54bd
00000300: 7c19 b0bd 2419 47be 4177 82be 42b6 18bb
00000310: 3c09 953d 6ae2 b8bc 3474 46be 5fd7 31be
00000320: 63c0 0d3e 102f d43c a495 3fbe 9a6c 99bd
00000330: bb3d a53a 33ce 1c3d 9197 eb3d 72f0 86bd
00000340: dae6 cbbd 1a9b 34be 7fc4 0c3e 05da be3c
00000350: 0e2c d9bc a87f 5dbd 4aea 46be 4ac2 ee3d
00000360: 2e2b 673e 6402 d93d 749a 2cbd fc30 0bbc
00000370: 26c9 453e e022 8c3e 693a 873e 4c47 243e
00000380: 94c3 d33d 1b58 04be 921b 0dbd c599 cfbc
00000390: c18b 83ba 9fc6 403e ef87 86bd 5086 38bc
000003a0: 6af7 e8bd 33c1 06bd aa17 123e 343e f93d
000003b0: f6b3 563e 503d c9bc 1d7d d0be 4ff8 3cbd
000003c0: 9615 c9bc 07bb dc3e 7396 dc3d af5c dabe
000003d0: aed2 51be a6a1 103e 05ca 483e 0438 2bbd
000003e0: 5918 adbe 79be 863c 1066 0dbe 0a72 e33c
000003f0: f6d6 edbd ca84 0cbd 19c5 353e c491 b63c

conv1.bias f4 [6]
-0.5408801 0.38088027 -0.34396052 -0.3720815 -0.027040165 0.06187714
00000000: 1e77 0abf bd02 c33e 981b b0be 7781 bebe
00000010: 5683 ddbc e272 7d3d

conv2.weight f4 [16, 6, 5, 5]
0.14353515 0.08022096 0.1401114 0.20076121 0.28953606 0.217781 0.082927875 -0.023556681
0.009524102 0.18944223 -0.058131814 0.11703231 0.255519 0.29744732 -0.0037205678 0.13832316
0.15053369 0.12816891 0.14855535 -0.0127701955 -0.0020053706 0.18556851 0.18859965 0.13976817
0.07140117 0.08763659 0.051601794 0.038204044 0.13595417 0.11755936 0.009307013 0.07085843
-0.056547977 -0.02163342 -0.032940317 -0.06384567 -0.117115766 -0.16351901 -0.05298422 -0.07110577
-0.123076625 -0.12599905 -0.18914509 -0.24286723 -0.042044133 -0.1068587 -0.15488735 -0.1163673
-0.02746451 0.14223251 0.097749785 0.1353022 0.11327818 -0.0007185129 0.02562179 0.04017151
0.22018784 0.07502252 0.15306889 0.048221745 -0.033506665 -0.06514935 0.06302099 0.11983955
0.118526705 -0.1453109 -0.06804137 -0.059961624 -0.13289611 -0.16779324 -0.17393444 -0.13123946
-0.17571573 -0.19772176 -0.27741188 -0.11538663 -0.100943096 -0.21858102 -0.26234135 -0.07256977
-0.052187443 -0.20545454 -0.07344175 0.028894752 0.22997864 0.05248065 0.0056889397 0.005357129
0.06591928 0.06401651 0.20332865 0.10474031 0.1692136 -0.020112861 -0.12364965 0.1397792
-0.06299724 -0.053207073 -0.020378359 -0.14076564 -0.08447974 -0.16366331 -0.052719247 -0.03399201
-0.14658992 -0.045609895 -0.05526686 0.059081826 -0.13725902 0.02038248 0.009557658 -0.07595749
-0.030367162 -0.24090102 -0.027313158 0.046057295 -0.12612596 -0.13313659 0.02024725 0.12259483
0.087173745 0.12606461 0.12329704 0.17463551 0.048074707 -0.08002108 0.009688851 0.00628065
-0.003248067 -0.035574548 0.09811442 0.046522964 -0.02337252 0.102139115 -0.04245048 -0.063278034
0.10204386 0.14653848 0.039919477 -0.07783639 -0.029881014 0.04577109 0.14521207 0.0894969
-0.045539316 -0.13720605 0.042815253 -0.06270538 -0.07340926 -0.033260863 -0.09474862 -0.0022547594
-0.036196318 0.07996513 0.10099859 0.060438693 0.07484575 -0.020360827 0.012227946 0.019277811
-0.1537216 0.06791165 0.0787188 0.042456318 -0.008443026 -0.1167921 -0.0144365365 0.12394408
0.029464457 -0.03832784 -0.038767077 -0.070477396 -0.091624185 0.05199122 -0.05926321 -0.1499739
-0.09424447 -0.005525719 -0.07746134 0.11090425 -0.074316345 -0.19242293 -0.17685102 -0.08696871
0.054000672 0.020729745 0.039766934 -0.15704247 -0.115777485 -0.15212078 0.16562496 0.12653577
0.113725 -0.027800243 -0.107353434 0.11893891 0.1297613 0.19802216 0.13842139 0.10165877
0.24676363 -0.0042144195 -0.090455495 -0.1993931 -0.05334171 0.20673962 0.13244559 0.06665959
-0.04719612 -0.1224772 -0.100315966 0.119540714 0.17594858 0.057755847 0.05558857 -0.052217644
-0.09156117 -0.049776968 0.05508681 0.12804818 -0.0062405616 -0.14468604 -0.033123676 -0.0035257237
0.09043991 0.29335964 0.22988549 -0.0045180637 -0.11352741 -0.010915488 -0.12225858 0.08370761
0.20615701 0.1152535 -0.10284072 -0.20180124 -0.19022332 -0.11517358 0.103229865 0.051833592
-0.12641728 -0.22290134 -0.13109371 -0.16699706 -0.04070229 0.14381337 -0.0038302038 -0.08780956
-0.11620173 -0.036428723 0.011547746 0.3618975 0.21640915 -0.1540254 -0.16984315 -0.308227
00000000: e1fa 123e e34a a43d 5d79 0f3e 5994 4d3e
00000010: 123e 943e fc01 5f3e 17d6 a93d f1f9 c0bc
00000020: fb0a 1c3c 25fd 413e a01b 6ebd a3ae ef3d
00000030: 63d3 823e 044b 983e c5d4 73bb 96a4 0d3e
00000040: 8125 1a3e b63e 033e e51e 183e 153a 51bc
00000050: 896c 03bb ac05 3e3e 4420 413e 631f 0f3e
00000060: c73a 923d d07a b33d 675c 533d d87b 1c3d
00000070: 9237 0b3e f6c2 f03d 717c 183c 391e 913d
00000080: da9e 67bd 9238 b1bc 6dec 06bd 85c1 82bd
00000090: 64da efbd 8771 27be fb05 59bd e79f 91bd
000000a0: 990f fcbd e505 01be 40af 41be 30b2 78be
000000b0: 7836 2cbd bcd8 dabd ca9a 1ebe fb51 eebd
000000c0: 41fd e0bc 66a5 113e 0a31 c83d a98c 0a3e
000000d0: 64fe e73d 965a 3cba cae4 d13c e28a 243d
000000e0: ec78 613e 68a5 993d 17be 1c3e 2a84 453d
000000f0: 493e 09bd 066d 85bd 2611 813d 706e f53d
00000100: 21be f23d 61cc 14be 4659 8bbd 529a 75bd
00000110: eb15 08be fed1 2bbe df1b 32be a363 06be
00000120: d3ee 33be 9377 4abe ee08 8ebe d34f ecbd
00000130: 41bb cebd b4d3 5fbe 9b51 86be 769f 94bd
00000140: 80c2 55bd ad62 52be a168 96bd b0b4 ec3c
00000150: 857f 6b3e f3f5 563d 496a ba3b db8a af3b
00000160: b000 873d 171b 833d 6335 503e 1682 d63d
00000170: 5446 2d3e bac3 a4bc 073c fdbd 4722 0f3e
00000180: b204 81bd a9ef 59bd 84f0 a6bc de24 10be
00000190: b703 adbd 5b97 27be 23f0 57bd 353b 0bbd
000001a0: ab1b 16be 71d1 3abd 815f 62bd c9ff 713d
000001b0: a18d 0cbe 29f9 a63c b997 1c3c 9a8f 9bbd
000001c0: 8ec4 f8bc c2ae 76be d8bf dfbc 93a6 3c3d
000001d0: 2a27 01be f554 08be 90dd a53c 0013 fb3d
000001e0: 2688 b23d 1517 013e 2983 fc3d a7d3 323e
000001f0: fce9 443d 18e2 a3bd fdbd 1e3c e9cd cd3b
00000200: 86dd 54bb 9eb6 11bd 37f0 c83d dd8e 3e3d
00000210: ba77 bfbc 502e d13d 8ee0 2dbd ea97 81bd
00000220: 5ffc d03d 2f0e 163e 9b82 233d af68 9fbd
00000230: 07c9 f4bc 777a 3b3d 79b2 143e 274a b73d
00000240: 6f87 3abd be7f 0cbe 0c5f 2f3d ae6b 80bd
00000250: 9857 96bd 8b3c 08bd 910b c2bd 96c4 13bb
00000260: 9742 14bd c2c4 a33d 59d8 ce3d 908e 773d
00000270: bb48 993d c0cb a6bc b957 483c 80ec 9d3c
00000280: 3269 1dbe 4315 8b3d 5237 a13d ade6 2d3d
00000290: 9e54 0abc b230 efbd 3987 6cbc 65d6 fd3d
000002a0: 725f f13c a7fd 1cbd 3aca 1ebd 7456 90bd
000002b0: 76a5 bbbd bff4 543d fbbd 72bd c292 19be
000002c0: 3f03 c1bd 1711 b5bb 0da4 9ebd c421 e33d
000002d0: 2b33 98bd 840a 45be 6f18 35be a71c b2bd
000002e0: cf2f 5d3d 6dd1 a93c a7e2 223d becf 20be
000002f0: bf1c edbd 8dc5 1bbe 9799 293e 9892 013e
00000300: a7e8 e83d 56bd e3bc 1edc dbbd 3e96 f33d
00000310: 25e0 043e 52c6 4a3e 56be 0d3e 7932 d03d
00000320: 9baf 7c3e 1d19 8abb bb40 b9bd b42d 4cbe
00000330: d67c 5abd 8db3 533e d19f 073e d384 883d
00000340: b850 41bd 54d5 fabd 7572 cdbd c3d1 f43d
00000350: dd2b 343e 6591 6c3d d7b0 633d 2be2 55bd
00000360: 6c84 bbbd efe2 4bbd b5a2 613d 101f 033e
00000370: a07d ccbb 9428 14be b1ac 07bd d40f 67bb
00000380: 8f38 b93d 3c33 963e 1a67 6b3e 440c 94bb
00000390: 0f81 e8bd e0d6 32bc b562 fabd e56e ab3d
000003a0: d31a 533e 070a ec3d 289e d2bd fca4 4ebe
000003b0: e7c9 42be 20e0 ebbd 2e6a d33d 764f 543d
000003c0: 8873 01be 4040 64be 6e3d 06be 4701 2bbe
000003d0: 72b7 26bd d043 133e 2804 7bbb 80d5 b3bd
000003e0: 2cfb edbd 4936 15bd c232 3d3c a14a b93e
000003f0: 5c9a 5d3e d6b8 1dbe 5deb 2dbe eecf 9dbe

conv2.bias f4 [16]
-0.27585432 -0.22546263 -0.33628988 -0.44788036 0.18636489 0.9096341 -0.1094476 -0.06685451
0.87137336 0.3231117 -0.42216963 -0.2592481 1.0309473 -0.12548862 0.108741604 -0.10835789
00000000: c73c 8dbe addf 66be 302e acbe 9350 e5be
00000010: 70d6 3e3e c8dd 683f 1026 e0bd 04eb 88bd
00000020: 5312 5f3f e66e a53e 9e26 d8be 2bbc 84be
00000030: 15f6 833f 1780 00be ebb3 de3d beea ddbd

fc1.weight f4 [120, 400]
0.032372784 0.03795502 0.021956937 -0.03457143 -0.036873035 0.054333523 -0.044486795 -0.057398044
-0.02825814 -0.008034885 -0.005249816 0.014314929 0.028095925 -0.034610864 0.046583813 0.033149306
0.06016666 0.09516109 0.07709973 -0.0141328145 0.09575354 0.12175101 -0.010239683 -0.037843425
0.014151443 -0.054781042 -0.09053937 -0.048665386 0.035352066 0.036018074 0.015005803 0.01567214
-0.09529778 -0.0553166 0.011102449 0.015988907 -0.06017066 -0.09523561 -0.05545588 -0.035575394
0.0038319041 -0.025447397 -0.045079518 0.037945416 -0.01626276 0.066027254 0.025636982 0.06829099
0.004970313 -0.044391345 -0.0050247335 -0.005108676 -0.023874983 -0.038449354 -0.04524185 -0.01886358
-0.07157389 -0.073963106 -0.053786032 -0.1032457 -0.018992057 -0.0129952105 -0.097833835 -0.15742734
-0.095871285 -0.024957107 -0.08829043 -0.04242552 -0.13582706 -0.032859724 -0.017456776 -0.046136882
0.007268773 0.020993294 -0.06490538 0.02171064 0.01124908 -0.07808513 -0.039305568 0.03598241
-0.0081188725 -0.026718318 -0.021945633 -0.0527154 -0.051042482 -0.036144536 -0.05183812 -0.087732986
-0.06273175 -0.057211954 -0.08397681 -0.043048155 0.024426168 -0.0023301174 -0.019316178 -0.014789543
-0.052795514 -0.026202653 -0.069199555 -0.029930798 0.09880216 0.017047198 -0.05341191 -0.019599743
-0.051820572 0.05854759 0.015283012 0.0082507655 0.04205294 0.07515627 -0.0332345 0.03397758
-0.060955763 0.0020768817 -0.00973278 -0.031510323 -0.025003811 -0.006077036 0.0726888 0.04081677
0.015888792 0.07308244 0.005447713 0.016543306 0.085375294 -0.03033898 -0.025474964 0.015799155
0.0030447792 0.05623607 0.03723941 -0.02453926 0.088326305 0.066638336 0.062477373 -0.020408176
-0.010353194 -0.03366442 -0.036422927 0.031185362 -0.041206807 -0.05733044 -0.06752243 -0.017259294
-0.021591706 -0.055268038 -0.06956257 -0.019866537 -0.02422125 0.062016953 -0.0011757419 -0.06967687
-0.03956142 -0.03847853 0.030504683 0.051505074 -0.07367597 -0.02817854 -0.030303752 0.028631259
-0.0007421971 -0.019554207 -0.05657768 0.02532023 0.008888896 0.082482345 0.05937038 0.0444472
0.088534385 0.07988672 0.04758356 0.09348823 0.061134934 -0.032184016 0.094846234 0.013920124
-0.0060887123 0.0019912056 -0.05254357 0.013151027 -0.0301609 0.0046922867 0.051123086 0.013780138
-0.028173262 0.046453346 0.061217453 -0.026167545 0.024111079 -0.023078652 -0.0431465 -0.042864412
-0.018456021 0.018314656 -0.052428905 -0.022057803 -0.02050773 0.017671654 0.0016846872 0.018709656
-0.042807657 -0.026684767 -0.028148409 -0.07691429 -0.0499899 -0.036304742 -0.06013015 0.02202635
-0.012596682 -0.036113236 0.059906848 -0.0036535575 -0.016300334 0.020230828 -0.0010507142 -0.007273019
0.08227467 -0.0013473042 -0.062613636 -0.08117534 0.050833177 -0.018552847 -0.03962646 -0.021905074
-0.023786075 -0.01134632 -0.034399923 -0.05411312 -0.015739886 0.07711614 -0.07488915 0.03411964
-0.00881882 0.026885007 0.12794453 0.03853621 -0.0023200088 0.10424242 -0.016315393 0.060728375
0.016258467 -0.02914545 0.04772769 0.027323965 -0.0748102 0.014211975 0.04958688 0.0061633727
0.05033027 0.026145127 0.002077006 -0.051061854 -0.02753848 -0.043555006 -0.062050607 0.0032906975
00000000: 5399 043d b976 1b3d 09df b33c c69a 0dbd
00000010: 2e08 17bd d48c 5e3d c937 36bd 361a 6bbd
00000020: 9d7d e7bc c0a4 03bc a606 acbb 2a89 6a3c
00000030: 6d29 e63c 1fc4 0dbd abce 3e3d 91c7 073d
00000040: 5171 763d d1e3 c23d 77e6 9d3d 528d 67bc
00000050: 6f1a c43d 9858 f93d 58c4 27bc b501 1bbd
00000060: 74db 673c 1662 60bd b56c b9bd 5b55 47bd
00000070: 54cd 103d b087 133d e6da 753c dc62 803c
00000080: 7c2b c3bd a993 62bd 0ce7 353c 2bfb 823c
00000090: 8375 76bd e30a c3bd b425 63bd 81b7 11bd
000000a0: af20 7b3b 0f77 d0bc 4da5 38bd a76c 1b3d
000000b0: 7b39 85bc 4c39 873d a604 d23c 26dc 8b3d
000000c0: 02de a23b b3d3 35bd 85a6 a4bb ae66 a7bb
000000d0: 7895 c3bc 127d 1dbd 854f 39bd cb87 9abc
000000e0: 5595 92bd f879 97bd be4e 5cbd 7b72 d3bd
000000f0: 3b95 9bbc dde9 54bc 1b5d c8bd a234 21be
00000100: 2a58 c4bd d972 ccbc 9dd1 b4bd 62c6 2dbd
00000110: 4016 0bbe eb97 06bd 8301 8fbc 07fa 3cbd
00000120: e32e ee3b 21fa ab3c 1ded 84bd 83da b13c
00000130: 104e 383c 19eb 9fbd e0fe 20bd 4b62 133d
00000140: 0505 05bc 60e0 dabc 54c7 b3bc 1aec 57bd
00000150: ec11 51bd 4b0c 14bd 3554 54bd 5aad b3bd
00000160: 8179 80bd 1557 6abd 09fc abbd 4353 30bd
00000170: 6319 c83c e2b4 18bb f63c 9ebc d74f 72bc
00000180: 1c40 58bd f2a6 d6bc 7fb8 8dbd 6f31 f5bc
00000190: c958 ca3d 91a6 8b3c 72c6 5abd a48f a0bc
000001a0: cf41 54bd 99cf 6f3d 9965 7a3c 382e 073c
000001b0: b43f 2c3d 88eb 993d e620 08bd 132c 0b3d
000001c0: c0ac 79bd 4b1c 083b 3d76 1fbc f810 01bd
000001d0: cbd4 ccbc df21 c7bb dedd 943d 7c2f 273d
000001e0: 3629 823c 3fac 953d bb82 b23b d485 873c
000001f0: 3ed9 ae3d 7489 f8bc dfb0 d0bc 3b6d 813c
00000200: eb8a 473b cb57 663d 5a88 183d 8f06 c9bc
00000210: 6ce4 b43d ae79 883d 46e8 7f3d 0c2f a7bc
00000220: 71a0 29bc b4e3 09bd 3530 15bd 7278 ff3c
00000230: 78c8 28bd 53d3 6abd 3349 8abd 5d63 8dbc
00000240: 17e1 b0bc bd60 62bd d276 8ebd 26bf a2bc
00000250: a56b c6bc 7d05 7e3d 5a1b 9aba bfb2 8ebd
00000260: 280b 22bd aa9b 1dbd f5e4 f93c fcf6 523d
00000270: 6de3 96bd aed6 e6bc 933f f8bc 1a8c ea3c
00000280: 0190 42ba 2530 a0bc ffbd 67bd 5f6c cf3c
00000290: bba2 113c 81ec a83d 5b2e 733d 440e 363d
000002a0: 8451 b53d a69b a33d fbe6 423d c276 bf3d
000002b0: a068 7a3d 63d3 03bd be3e c23d 3b11 643c
000002c0: d283 c7bb e37e 023b ed37 57bd 6877 573c
000002d0: fe13 f7bc c1c1 993b 7166 513d 17c6 613c
000002e0: 9dcb e6bc dd45 3e3d 27bf 7a3d 525d d6bc
000002f0: 9984 c53c 710f bdbc 62ba 30bd 9892 2fbd
00000300: 1531 97bc 9e08 963c b1bf 56bd 91b2 b4bc
00000310: d4ff a7bc 25c4 903c b9d0 dc3a fe44 993c
00000320: 1557 2fbd 039a dabc 7e97 e6bc 3d85 9dbd
00000330: 36c2 4cbd 48b4 14bd 084b 76bd 9b70 b43c
00000340: 5062 4ebc 79eb 13bd e260 753d 8670 6fbb
00000350: 4788 85bc 1fbb a53c 1eb8 89ba 8152 eebb
00000360: 9f7f a83d 0798 b0ba 943b 80bd 423f a6bd
00000370: 7336 503d 24fc 97bc 5b4f 22bd 4572 b3bc
00000380: 04db c2bc eae5 39bc efe6 0cbd b8a5 5dbd
00000390: eff0 80bc 11ef 9d3d 7c5f 99bd 09c1 0b3d
000003a0: d07c 10bc f23d dc3c e403 033e 25d8 1d3d
000003b0: 4a0b 18bb 0d7d d53d dca7 85bc 51be 783d
000003c0: 7a30 853c 70c2 eebc 1c7e 433d 82d6 df3c
000003d0: 1736 99bd 58d9 683c 9d1b 4b3d 1ef6 c93b
000003e0: 1d27 4e3d 4e2e d63c 611e 083b 3c26 51bd
000003f0: 6198 e1bc bc66 32bd c728 7ebd bea8 573b

fc1.bias f4 [120]
0.15315032 -0.012617685 -0.044055365 0.117980935 -0.08682489 0.016705614 -0.036588807 0.14570646
0.12358622 0.04249286 0.015782466 0.007856721 0.020662144 0.019769626 -0.03555277 -0.10765291
0.055372767 0.031060526 0.108788036 -0.011715973 -0.01631151 0.04228717 0.054386124 0.0453985
0.114942685 -0.07862647 -0.03216984 0.09767581 0.24624054 0.05862773 0.12737642 -0.19008347
0.05551881 0.11000066 -0.022898411 -0.05460428 0.041217282 -0.017783437 -0.009130565 0.1533807
0.018277695 -0.04888098 0.04145233 -0.05729549 -0.049416643 0.0339817 -0.0036146333 -0.059983276
0.19500354 -0.039524447 -0.00022823825 0.06582402 0.0034203285 -0.0121939555 -0.074578606 -0.031731006
-0.0034866005 0.028996088 0.11650461 0.11260005 0.007562701 0.036227666 0.047538843 0.013491486
-0.028841611 0.035637747 -0.060684822 -0.05437909 0.18215485 -0.113430984 0.016512973 0.16661331
-0.011637787 0.17134452 0.03706842 0.058459558 0.07965493 -0.0017932091 0.029870322 0.0018491546
0.0816558 0.11548769 0.011188552 0.049767673 0.036487073 0.13279743 0.0189609 0.15039614
0.05312388 -0.039958 0.018516222 0.04496469 0.023102876 0.08440805 0.0062895613 0.032912653
-0.0434044 0.028501319 -0.0038757452 0.08631051 -0.021831423 -0.009413932 0.013929531 -0.030148564
0.055212025 0.029211238 0.11852298 -0.034735087 -0.022457704 0.011010048 0.13494666 -0.05617887
0.056111023 -0.2890836 -0.0031430584 0.0059341146 -0.033755682 0.09995642 -0.025365964 -0.037609085
00000000: 70d3 1c3e 68ba 4ebc 6673 34bd fd9f f13d
00000010: 3fd1 b1bd 36da 883c 25de 15bd 1334 153e
00000020: c61a fd3d fe0c 2e3d 3b4a 813c 7ab9 003c
00000030: a843 a93c e9f3 a13c c89f 11bd 2179 dcbd
00000040: 8ece 623d a572 fe3c 43cc de3d 5af4 3fbc
00000050: b79f 85bc 5035 2d3d fcc3 5e3d c7f3 393d
00000060: 1267 eb3d ea06 a1bd 86c4 03bd 410a c83d
00000070: 7b26 7c3e a123 703d f76e 023e 3ea5 42be
00000080: b167 633d 0748 e13d 7395 bbbc bda8 5fbd
00000090: 74d3 283d 92ae 91bc 5e98 15bc d50f 1d3e
000000a0: 1bbb 953c 6c37 48bd ebc9 293d adae 6abd
000000b0: 1b69 4abd 6530 0b3d 7ce3 6cbb 06b1 75bd
000000c0: 02af 473e 63e4 21bd 3d53 6fb9 bece 863d
000000d0: 9727 603b 28c9 47bc abbc 98bd 5ff8 01bd
000000e0: 737f 64bb 3489 ed3c f899 ee3d db9a e63d
000000f0: 89d0 f73b 7663 143d 17b8 423d 650b 5d3c
00000100: 3e45 ecbc e3f8 113d a690 78bd 9cbc 5ebd
00000110: cd86 3a3e 814e e8bd 3746 873c ae9c 2a3e
00000120: 6bac 3ebc f074 2f3e 0ed5 173d 4a73 6f3d
00000130: 2022 a33d 1d0a ebba 9bb2 f43c 555f f23a
00000140: 283b a73d cf84 ec3d 3050 373c 30d9 4b3d
00000150: 7873 153d 0dfc 073e e453 9b3c 7201 1a3e
00000160: 6d98 593d 00ab 23bd 55af 973c e52c 383d
00000170: 3e42 bd3c 21de ac3d aa18 ce3b 6bcf 063d
00000180: d0c8 31bd 997b e93c 3700 7ebb 91c3 b03d
00000190: d0d7 b2bc e53c 1abc b038 643c 1ffa f6bc
000001a0: 0126 623d 684c ef3c 2dbc f23d 6146 0ebd
000001b0: 38f9 b7bc 7d63 343c 752f 0a3e d11b 66bd
000001c0: acd4 653d c402 94be c5fb 4dbb f672 c23b
000001d0: 6643 0abd f4b5 cc3d 48cc cfbc fc0b 1abd

fc2.weight f4 [84, 120]
0.019762333 0.07749603 0.013014108 -0.014150023 -0.16611253 0.0456761 0.05986295 0.090399414
-0.047020566 0.011700932 -0.015972551 -0.08538402 -0.08840889 0.08628566 -0.011956749 0.07763388
0.033543393 0.03640664 0.039158534 -0.06531223 -0.06435549 0.015631065 0.05921095 -0.08827883
0.015804553 0.031972762 -0.07267453 -0.13172974 0.14762813 0.0071115084 0.13076791 0.048675474
0.08695158 0.04284443 -0.014692477 -0.035213664 -0.041596826 -0.10331796 -0.0673916 -0.023776127
0.037861526 -0.036027953 0.03533656 -0.01164731 -0.08845129 -0.0021323957 0.13052349 0.18258104
0.11748327 -0.01833206 0.04320165 0.06942411 0.10944527 -0.08727086 -0.06664154 -0.072915144
0.05413702 -0.05819724 0.03794846 -0.08128917 0.018991431 -0.05512712 0.13414454 -0.05916981
-0.059847623 -0.08882562 -0.026815569 -0.029109377 -0.066178866 0.070068166 0.0682552 0.037237052
-0.035080828 -0.05130832 -0.10529537 0.05447889 0.016323773 -0.045067884 -0.08168063 -0.04979469
-0.09681129 -0.11644029 -0.07174459 -0.07415084 0.016554685 -0.14009185 -0.0078015546 0.0962816
0.12163743 -0.013463025 -0.020651244 -0.04145322 0.07130487 -0.11571015 0.092790194 0.09964238
0.02108028 -0.07561911 0.020961724 -0.14589135 -0.16994624 -0.01220751 -0.0032856609 0.031076577
0.07787036 -0.050303806 0.03224945 -0.004423142 0.10696715 -0.10835008 0.022496639 0.058481004
-0.03452567 0.038300194 0.06391144 0.012992689 -0.046462502 0.042543195 -0.07206522 -0.026873264
0.12117952 -0.09976304 0.024619764 0.04377024 -0.0012805157 0.02928965 -0.05220793 0.010627015
0.013337624 0.06462369 -0.036558945 0.12475732 -0.04264891 0.00789398 -0.013481472 0.16569844
-0.046035443 -0.04260609 -0.020239646 -0.0986932 -0.05569314 -0.012588666 0.0047671194 -0.06339545
0.0019791897 0.013349825 0.04056589 -0.071311906 0.0104520265 -0.029004836 -0.0674701 0.06840604
-0.078338675 -0.035763446 0.031586744 -0.115972765 -0.0293915 -0.13076901 -0.09255574 -0.087684356
-0.10937736 -0.05391535 -0.06516353 0.13083449 -0.06855736 0.031066509 0.089598686 0.064317234
0.057668783 0.03080962 0.011416801 -0.0657834 0.016155493 0.031088792 -0.05054754 -0.007111579
0.07871334 -0.042512193 0.03665827 -0.051517658 0.027653713 -0.10929707 -0.0240599 -0.11150719
0.13801403 -0.009482607 -0.079811774 -0.08864553 -0.0988441 -0.08986055 0.035070855 -0.050198596
-0.0002257826 -0.023178022 -0.023820657 0.045748148 -0.0042672334 0.06119984 0.00095636875 0.06946523
-0.013478059 -0.009248236 -0.016913716 -0.11095917 -0.09954407 0.08142725 0.019435564 0.04963008
0.040386144 0.03007707 -0.08433515 0.08442103 -0.09417299 0.018056866 -0.048214775 0.095137425
0.08766105 0.11122865 -0.08881215 0.03442163 -0.13620578 -0.02749636 -0.0020722859 0.09377218
0.061546683 -0.040006075 -0.0836965 -0.050573412 0.06328465 0.030493628 0.037007976 0.08621629
-0.042987883 -0.047731753 -0.08284716 0.07462502 0.05934183 -0.06381988 -0.055665463 -0.009394514
-0.03055426 0.07028481 0.034781452 0.073660694 -0.07133198 -0.07123802 -0.08779829 0.06423138
0.042490236 -0.044076964 0.0670532 -0.08850376 0.035442404 0.030715728 -0.03136891 -0.031277545
00000000: 9ee4 a13c 3db6 9e3d 2039 553c 80d5 67bc
00000010: 6719 2abe dd16 3b3d da32 753d 5423 b93d
00000020: a398 40bd 44b5 3f3c ded8 82bc d1dd aebd
00000030: b80f b5bd 89b6 b03d 3de6 43bc 83fe 9e3d
00000040: cc64 093d 211f 153d b364 203d 6bc2 85bd
00000050: d0cc 83bd b80c 803c 2e87 723d 88cb b4bd
00000060: 8d78 813c dff5 023d 62d6 94bd 29e4 06be
00000070: d42b 173e a807 e93b 06e8 053e ef5f 473d
00000080: ac13 b23d a47d 2f3d b7b8 70bc 343c 10bd
00000090: 6f61 2abd 5e98 d3bd 9b04 8abd 27c6 c2bc
000000a0: b014 1b3d 0c92 13bd 12bd 103d 5cd4 3ebc
000000b0: f325 b5bd aabf 0bbb f3a7 053e 86f6 3a3e
000000c0: 129b f03d 1e2d 96bc 37f4 303d 3a2e 8e3d
000000d0: d724 e03d 11bb b2bd 5c7b 88bd 8954 95bd
000000e0: c8be 5d3d 3b60 6ebd d86f 1b3d f07a a6bd
000000f0: eb93 9b3c facc 61bd 305d 093e 0b5c 72bd
00000100: c822 75bd 35ea b5bd 53ac dbbc ca76 eebc
00000110: c988 87bd e67f 8f3d 62c9 8b3d e185 183d
00000120: eab0 0fbd ac28 52bd 19a5 d7bd 4225 5f3d
00000130: 6fb9 853c 1a99 38bd 2d48 a7bd 84f5 4bbd
00000140: ff44 c6bd 3f78 eebd d4ee 92bd 65dc 97bd
00000150: b19d 873c 3d74 0fbe 2fa4 ffbb 4a2f c53d
00000160: 0b1d f93d 0594 5cbc cc2c a9bc daca 29bd
00000170: 4a08 923d 71f9 ecbd c908 be3d 4e11 cc3d
00000180: 8db0 ac3c 31de 9abd ecb7 ab3c 8b64 15be
00000190: 6306 2ebe 0202 48bc 3e54 57bb 4e94 fe3c
000001a0: 7f7a 9f3d 5d0b 4ebd 0018 043d 01f0 90bb
000001b0: 9811 db3d a6e6 ddbd df4a b83c c789 6f3d
000001c0: ca6a 0dbd aae0 1c3d 00e4 823d 4adf 543c
000001d0: 774f 3ebd c641 2e3d ee96 93bd 5225 dcbc
000001e0: f82c f83d 9150 ccbd 63af c93c 6c48 333d
000001f0: fad6 a7ba d9f0 ef3c fbd7 55bd ee1c 2e3c
00000200: 0d86 5a3c 6d59 843d d5be 15bd c480 ff3d
00000210: a0b0 2ebd c055 013c 64e1 5cbc daac 293e
00000220: a98f 3cbd b983 2ebd 9dcd a5bc a91f cabd
00000230: 7d1e 64bd b140 4ebc 7f35 9c3b 79d5 81bd
00000240: 4bb5 013b 39b9 5a3c 6b28 263d fa0b 92bd
00000250: fa3e 2b3c 8d9b edbc c42d 8abd 7718 8c3d
00000260: 0770 a0bd b17c 12bd 1a61 013d 2183 edbd
00000270: 71c6 f0bc 50e8 05be dd8d bdbd db93 b3bd
00000280: 3d01 e0bd 58d6 5cbd 7574 85bd 7af9 053e
00000290: cd67 8cbd 317f fe3c 847f b73d c1b8 833d
000002a0: 1a36 6c3d 7564 fc3c 890d 3b3c 72b9 86bd
000002b0: 8658 843c ecad fe3c f00a 4fbd 4008 e9bb
000002c0: 7634 a13d 4421 2ebd fb26 163d 2e04 53bd
000002d0: 0a8a e23c 24d7 dfbd 4419 c5bc e25d e4bd
000002e0: 8d53 0d3e f05c 1bbc 5b74 a3bd ca8b b5bd
000002f0: c76e cabd cf08 b8bd 75a6 0f3d 0b9d 4dbd
00000300: 0ec0 6cb9 d6df bdbc 8a23 c3bc 6962 3b3d
00000310: 26d4 8bbb afac 7a3d d2b4 7a3a c943 8e3d
00000320: 14d3 5cbc ea85 17bc a28e 8abc 903e e3bd
00000330: c3dd cbbd 54c3 a63d 5537 9f3c e948 4b3d
00000340: f16b 253d 3064 f63c e8b7 acbd efe4 ac3d
00000350: c5dd c0bd feeb 933c db7c 45bd 69d7 c23d
00000360: a387 b33d d9cb e33d 25e3 b5bd b2fd 0c3d
00000370: 8779 0bbe 0c40 e1bc 30cf 07bb a10b c03d
00000380: 6018 7c3d 69dd 23bd 1269 abbd 1126 4fbd
00000390: 629b 813d c6cd f93c ad95 173d 2b92 b03d
000003a0: 1014 30bd 5f82 43bd c6ab a9bd 01d5 983d
000003b0: 6b10 733d ffb3 82bd 7801 64bd 73eb 19bc
000003c0: ed4c fabc 7cf1 8f3d ff76 0e3d 6bdb 963d
000003d0: 8016 92bd 3de5 91bd 97cf b3bd be8b 833d
000003e0: 3e0a 2e3d 0c8a 34bd 3053 893d 7641 b5bd
000003f0: 0e2c 113d 8d9f fb3c b07c 00bd e21c 00bd

fc2.bias f4 [84]
0.074856825 -0.09436099 -0.010414316 -0.062489163 -0.099651866 -0.1071761 0.23923615 0.11434775
-0.060197733 0.11035686 0.16335666 0.1150854 -0.04670929 0.2971568 0.041134223 0.2227766
-0.00039720416 -0.1366001 0.06538733 0.04156509 -0.06695044 0.022388268 0.26624188 0.25455037
0.26233268 0.24911022 0.08143304 -0.089297935 0.117158785 -0.10150219 -0.07367493 0.07480538
0.12620255 -0.07106575 0.04542695 0.1230444 -0.07245433 0.06012238 0.1458953 0.07081878
0.0014567972 0.015191357 0.13484156 0.19988802 -0.0784431 0.18850906 0.119181596 0.045447055
-0.04040545 -0.044351563 0.04326678 0.02701204 0.19861491 -0.0056467075 0.17673044 -0.03234634
0.05766016 -0.11850103 0.25826746 0.30203593 0.13140526 0.3941433 0.097066894 0.083684646
0.0044542924 -0.056150515 0.072637424 -0.029921839 -0.04401259 0.079829335 0.39510146 -0.14280136
-0.030566324 0.14661498 -0.089432724 -0.2387348 0.031227324 0.15511145 -0.025644582 -0.07147349
0.1926257 -0.032362327 0.23449588 -0.024768967
00000000: 894e 993d 5640 c1bd cfa0 2abc a3f4 7fbd
00000010: 4716 ccbd 257f dbbd 52fa 743e 272f ea3d
00000020: e691 76bd c702 e23d f846 273e e5b1 eb3d
00000030: 3e52 3fbd f024 983e 5c7c 283d 8d1f 643e
00000040: d73f d0b9 e6e0 0bbe cbe9 853d 2840 2a3d
00000050: 501d 89bd 9a67 b73c db50 883e 6d54 823e
00000060: 7850 863e c016 7f3e 5ec6 a63d d6e1 b6bd
00000070: f2f0 ef3d 61e0 cfbd e2e2 96bd 9033 993d
00000080: 3e3b 013e ec8a 91bd 9c11 3a3d b4fe fb3d
00000090: f062 94bd e242 763d 9465 153e 7009 913d
000000a0: 01f2 be3a 2be5 783c e813 0a3e 72af 4c3e
000000b0: c7a6 a0bd 8508 413e 7b15 f43d b126 3a3d
000000c0: 2f80 25bd fca9 35bd 8238 313d 5b48 dd3c
000000d0: b561 4b3e 0408 b9bb d3f8 343e 997d 04bd
000000e0: 0f2d 6c3d abb0 f2bd a23b 843e 74a4 9a3e
000000f0: 1a8f 063e 27cd c93e 02cb c63d db62 ab3d
00000100: 50f5 913b 15fe 65bd eec2 943d a51e f5bc
00000110: 8c46 34bd 907d a33d bd4a ca3e 853a 12be
00000120: 3a66 fabc 3d22 163e 8128 b7bd e576 74be
00000130: 72d0 ff3c 89d5 1e3e 9614 d2bc b160 92bd
00000140: ac3f 453e 5c8e 04bd b01f 703e 4ae8 cabc

fc3.weight f4 [10, 84]
-0.16557759 -0.07377334 0.05848743 -0.028413415 0.17797369 0.1596676 0.20406595 -0.06878049
-0.057984006 -0.044451877 0.13350159 0.09105699 -0.0072082346 -0.13697807 0.019196661 0.15213044
0.12154111 0.17848372 -0.05243372 -0.18089734 0.03832247 -0.13493937 -0.0028806725 -0.12390706
-0.07208133 0.279378 0.09491015 0.009447452 -0.139861 0.00848799 -0.03496066 -0.099858016
-0.05208483 -0.054987993 0.0017789566 -0.016753849 0.025933107 -0.018867407 0.024480412 -0.1199078
0.012430575 0.118641 -0.14071026 -0.11343562 -0.14706735 0.13728283 -0.07131572 0.06251281
0.22930887 0.082870156 0.10041605 -0.080054596 -0.24995223 0.061099406 0.13809642 0.10087875
-0.109393165 0.12900038 0.16113447 -0.11655678 -0.024815656 -0.0054835705 -0.040963672 -0.043498375
0.040796287 -0.09143327 0.16343758 0.19586676 -0.0787185 0.009802936 -0.13637432 0.021488497
-0.0678441 -0.13307297 0.3053386 0.028896531 -0.07795843 -0.23180567 0.19352667 0.20250142
0.08793454 0.07552863 0.15425727 -0.14980872 0.027600352 0.13318293 0.043562546 -0.06845523
-0.13983184 0.3239946 0.03084171 -0.086498484 0.002664585 -0.119563416 0.052052338 0.020191938
-0.06764765 -0.27863255 0.20118754 -0.060670447 -0.1060673 0.110331446 0.2309028 -0.34324417
0.084360465 0.2196339 -0.14987145 0.09978764 0.24174634 0.00062424253 -0.03721457 0.07508619
-0.039005026 -0.019047081 0.06404437 -0.0722547 -0.122306116 0.037856385 0.0874854 0.01584715
0.10798475 0.07501138 -0.09702059 0.016201148 -0.009745802 0.043616958 0.13767952 -0.22158276
0.19752228 0.058727555 -0.07779785 -0.07300066 -0.09572023 0.27685028 0.26325646 -0.075188465
-0.34680176 0.103341766 -0.31511772 -0.10509137 -0.16476375 0.065735504 -0.12398941 -0.07522894
0.03644349 -0.23212235 0.036923062 -0.25210872 0.009983952 -0.008845597 -0.13363898 -0.10882958
-0.087166175 0.0130141135 -0.08943105 -0.091148466 -0.007344441 -0.20945732 -0.03472948 -0.02654117
-0.0155105805 0.026856977 -0.16296697 0.40466854 -0.06380058 0.040444754 -0.18964511 -0.13582373
0.2921368 0.0754577 0.023777423 0.048863407 -0.09667362 -0.1371406 0.08238593 -0.022410361
0.0313151 -0.002944279 -0.11468443 -0.12402054 0.011221327 0.03852771 -0.15942487 -0.047292516
0.14375074 -0.04755139 0.09449333 0.1725148 0.06669523 -0.1262846 0.22359052 0.20595804
-0.22654489 0.20482321 0.05451598 0.082881615 -0.04234607 0.0826767 -0.12695813 0.050575007
0.12105827 0.041669384 -0.10786749 -0.029242316 0.08868615 -0.14354864 0.12936883 -0.056631554
-0.04188265 0.05025783 -0.04989239 -0.0035891652 -0.1380018 -0.21418817 0.0557822 -0.047461182
0.12415402 -0.058847237 -0.012046095 0.09503357 0.090719484 0.07003622 0.36038178 0.0040477356
0.20580629 0.07094574 -0.1393865 -0.081104755 -0.15915726 0.19346854 -0.041678768 -0.1585355
0.093479365 -0.034248605 -0.06643363 0.17918478 0.0052219583 -0.047245793 0.14456561 -0.042197563
-0.059820645 0.07762727 0.10923265 0.12872906 -0.101422146 0.034652 0.1650934 0.002412171
-0.1316176 0.014415348 0.080459364 -0.23486513 -0.19342636 -0.07693408 -0.08271481 -0.08015539
00000000: 2c8d 29be 7a16 97bd 8490 6f3d 40c3 e8bc
00000010: bc3e 363e e77f 233e aaf6 503e c9dc 8cbd
00000020: a380 6dbd 2c13 36bd a4b4 083e 167c ba3d
00000030: 0e33 ecbb fb43 0cbe 5142 9d3c 15c8 1b3e
00000040: 8cea f83d 70c4 363e bec4 56bd 273d 39be
00000050: 06f8 1c3d 8c2d 0abe aac9 3cbb fcc2 fdbd
00000060: 609f 93bd a20a 8f3e 4160 c23d 7cc9 1a3c
00000070: b937 0fbe 3611 0b3c e932 0fbd 5c82 ccbd
00000080: e756 55bd 173b 61bd e12b e93a 5e3f 89bc
00000090: ab71 d43c d28f 9abc 258b c83c 3892 f5bd
000000a0: 9ca9 4b3c 0dfa f23d 5a16 10be ef50 e8bd
000000b0: d398 16be df93 0c3e fa0d 92bd b706 803d
000000c0: f2cf 6a3e d4b7 a93d eea6 cd3d aaf3 a3bd
000000d0: 7af3 7fbe 5f43 7a3d 2669 0d3e 8599 ce3d
000000e0: 8609 e0bd ad18 043e 6f00 253e 52b5 eebd
000000f0: 344a cbbc 86af b3bb 86c9 27bd 5a2b 32bd
00000100: 021a 273d 5e41 bbbd 2e5c 273e 4c91 483e
00000110: 2a37 a1bd 7e9c 203c b6a5 0bbe a508 b03c
00000120: d9f1 8abd 4844 08be 5755 9c3e 6bb8 ec3c
00000130: aba8 9fbd 775e 6dbe db2b 463e 885c 4f3e
00000140: 0617 b43d c1ae 9a3d 9ef5 1d3e 7567 19be
00000150: 221a e23c 1b61 083e a46e 323d 4132 8cbd
00000160: 1430 0fbe 9fe2 a53e c1a7 fc3c 1e26 b1bd
00000170: 51a0 2e3b aadd f4bd d534 553d 9069 a53c
00000180: da8a 8abd eda8 8ebe 1b04 4e3e 9381 78bd
00000190: d039 d9bd 74f5 e13d c971 6c3e b3bd afbe
000001a0: 2ec5 ac3d b6e7 603e e777 19be 765d cc3d
000001b0: 5a8c 773e 35a4 233a 4e6e 18bd cac6 993d
000001c0: bcc3 1fbd a008 9cbc b229 833d 46fa 93bd
000001d0: a17b fabd 4c0f 1b3d 8c2b b33d e2d1 813c
000001e0: 1c27 dd3d 919f 993d bbb2 c6bd 45b8 843c
000001f0: dbac 1fbc b2a7 323d dcfb 0c3e 97e6 62be
00000200: 4843 4a3e 4e8c 703d 7b54 9fbd 5f81 95bd
00000210: f808 c4bd 52bf 8d3e 8dc9 863e 69fc 99bd
00000220: 0090 b1be d9a4 d33d 1c57 a1be 253a d7bd
00000230: d4b7 28be 56a0 863d 29ee fdbd a111 9abd
00000240: c545 153d 7bb1 6dbe a33c 173d 6514 81be
00000250: bb93 233c 1fed 10bc a8d8 08be 0be2 debd
00000260: 2e84 b2bd 2639 553c a027 b7bd 0cac babd
00000270: a3a9 f0bb fb7b 56be 8040 0ebd de6c d9bc
00000280: 1720 7ebc 2a03 dc3c d0e0 26be b730 cf3e
00000290: e1a9 82bd 66a9 253d 5432 42be 6015 0bbe
000002a0: f492 953e 9189 9a3d dfc8 c23c ff24 483d
000002b0: d2fc c5bd 966e 0cbe f4b9 a83d ef95 b7bc
000002c0: 4344 003d cef4 40bb acdf eabd 7bfe fdbd
000002d0: a8d9 373c 3bcf 1d3d 4640 23be ccb5 41bd
000002e0: 6533 133e 3fc5 42bd b885 c13d b8a7 303e
000002f0: 8297 883d c050 01be eaf4 643e aae6 523e
00000300: 62fb 67be 2dbd 513e 264c 5f3d d6bd a93d
00000310: 1373 2dbd 6752 a93d 5001 02be bd27 4f3d
00000320: 66ed f73d 84ad 2a3d a1e9 dcbd 958d efbc
00000330: 16a1 b53d 6afe 12be 4379 043e 7df6 67bd
00000340: 248d 2bbd 28db 4d3d f65b 4cbd 3338 6bbb
00000350: 5850 0dbe 2554 5bbe e07b 643d a866 42bd
00000360: 7644 fe3d cd09 71bd fc5c 45bc f6a0 c23d
00000370: 23cb b93d 266f 8f3d f683 b83e dea2 843b
00000380: e2be 523e 004c 913d 56bb 0ebe 401a a6bd
00000390: 1ffa 22be 9e1c 463e 5bb7 2abd 2157 22be
000003a0: 1c72 bf3d 4448 0cbd 5b0e 88bd 377c 373e
000003b0: f61c ab3b ce84 41bd 0209 143e 5ad7 2cbd
000003c0: 7e06 75bd 0cfb 9e3d 5eb5 df3d 8dd1 033e
000003d0: 6ab6 cfbd 41ef 0d3d 3f0e 293e 8415 1e3b
000003e0: c4c6 06be 5a2e 6c3c e1c7 a43d 7c80 70be
000003f0: 8f11 46be 9d8f 9dbd 6266 a9bd 8228 a4bd
