cifar10-lowprecision/saved-models/cifar_net_e2.pth (torch, 279533 bytes, 9 tensors)

conv1.weight f4 [6, 3, 5, 5]
0	0x3cd03e7d	0.025420422
1	0xbdc85629	-0.09782059
2	0xbd98b86a	-0.07457049
3	0xbd8175f3	-0.06321325
4	0xbb558964	-0.0032583112
5	0xbd0fc499	-0.0350996
6	0xbe8305ee	-0.25590461
7	0xbdeadd9e	-0.114680514
8	0xbe549753	-0.2076085
9	0xbe6feafd	-0.23429485
10	0xbe967722	-0.29387766
11	0xbe164d18	-0.14677846
12	0xbe95371f	-0.29143617
13	0xbe926090	-0.28589296
14	0xbe8a17ef	-0.26971385
15	0xbe8d4561	-0.27591994
16	0xbda45fef	-0.080261104
17	0xbdb46502	-0.08808328
18	0xbe84219d	-0.25806895
19	0xbe121377	-0.14265238
20	0xbe70fd06	-0.23534021
21	0xbdd134c7	-0.102151446
22	0xbe4a5cb4	-0.19761926
23	0xbe2e34b9	-0.170123
24	0xbe97e795	-0.2966887
25	0x3d8e56d8	0.06950158
26	0x3e0f7353	0.14008836
27	0x3e04abb2	0.12956122
28	0xbc85a208	-0.016312614
29	0xbdad5b95	-0.084647335
30	0x3b6ec060	0.0036430582
31	0x3d49c250	0.049257576
32	0xbd90237b	-0.07038017
33	0x3d061465	0.032734293
34	0xbd15307d	-0.036423195
35	0xbd66efad	-0.056380916
36	0xbd7ae8d6	-0.061257206
37	0xbd14da39	-0.036340926
38	0x3cf0fcc2	0.0294174
39	0xbc26c8ec	-0.010179739
40	0x3db34bc6	0.08754687
41	0x3d185c25	0.03719725
42	0x3e093bf5	0.13401778
43	0x3e354f77	0.17706095
44	0xbcfcfea4	-0.03088314
45	0xbcca9f0c	-0.024734043
46	0xbd7043b7	-0.058658328
47	0xbd361bc6	-0.04446008
48	0xbd1ecbd0	-0.03876859
49	0xbc42b113	-0.011883038
50	0x3e4ec838	0.20193565
51	0x3e84eef7	0.25963566
52	0x3e82c4b8	0.2554071
53	0x3debb569	0.115092106
54	0x3ccfe986	0.025379907
55	0x3e0ec273	0.13941364
56	0x3e8ea3ce	0.27859348
57	0x3e5be6e4	0.21474797
58	0x3e16ff67	0.14745866
59	0xbc0ad62c	-0.008473914
60	0x3e5077f9	0.20358266
61	0x3e979210	0.29603624
62	0x3e46c4ab	0.1941096
63	0x3e2b3280	0.16718483
64	0xbcb54648	-0.02212824
65	0x3e814942	0.25251204
66	0x3e4fffcf	0.20312427
67	0x3ea1d544	0.3160802
68	0x3e850ecb	0.2598785
69	0x3e4c4062	0.19946435
70	0x3dd91120	0.105989695
71	0x3e0691d8	0.13141572
72	0x3e37e2ae	0.17957565
73	0x3d6f49fa	0.05842016
74	0x3dd05d9a	0.10174103
75	0xbe22fee9	-0.15917553
76	0x3dd16b0f	0.10225498
77	0xbe897655	-0.26848093
78	0xbe37bbc5	-0.17942722
79	0xbdceb02a	-0.100921944
80	0x3d6faaba	0.058512427
81	0x3ea33ba8	0.31881452
82	0xbea78462	-0.32718188
83	0xbea4dd9d	-0.32200328
84	0xbdf1341d	-0.11777518
85	0x3e9b8815	0.3037726
86	0x3ea1156f	0.31461665
87	0xbe6be36a	-0.2303597
88	0xbea7e7df	-0.3279409
89	0xbdde4593	-0.10853114
90	0x39e2f639	0.0004328953
91	0xbdb0ec2e	-0.08638798
92	0xbd5f1ab4	-0.054468825
93	0x3d6032a9	0.054735813
94	0xbced39ba	-0.02895819
95	0xbd5eb222	-0.0543691
96	0xbdfd5e9d	-0.12371562
97	0x3d9b2fac	0.07577452
98	0x3e0cca21	0.13748981
99	0x3d3d947f	0.046284195
100	0xbd96e447	-0.07367759
101	0x3ea0af55	0.31383768
102	0xbdf65a9c	-0.12029001
103	0xbd346083	-0.044037353
104	0xbc33ad06	-0.010966545
105	0x3ea9d108	0.3316729
106	0x3ea79a6b	0.32735
107	0xbe8d97be	-0.27654833
108	0xbea2edc2	-0.3182202
109	0x3ddd478b	0.10804661
110	0x3eaf37c0	0.3422222
111	0x3ebe86a2	0.37212092
112	0xbe78f871	-0.24313523
113	0xbe981ccd	-0.29709473
114	0x3e17ead7	0.14835678
115	0x3e9b69c6	0.30354136
116	0x3d62e529	0.055394325
117	0x3e171db2	0.14757422
118	0x3e28f70d	0.16500492
119	0xbd1fbde5	-0.038999457
120	0x3e492630	0.19643474
121	0x3d4d57f0	0.05013269
122	0x3de49716	0.1116163
123	0x3e4fbe1d	0.20287366
124	0x3db763e6	0.08954601
125	0xbe734dd6	-0.23760161
126	0x3e2e7a2d	0.17038794
127	0xbe960099	-0.2929733
128	0xbe77d49b	-0.24202196
129	0xbd8ed4dd	-0.06974194
130	0x3e4d1a17	0.20029484
131	0x3ea485ff	0.3213348
132	0xbea18f74	-0.3155476
133	0xbe94cd14	-0.29062712
134	0xbc05adb3	-0.008159089
135	0x3ea7f663	0.32805166
136	0x3ea6d267	0.325824
137	0xbea70913	-0.3262411
138	0xbe8e6537	-0.27811596
139	0xbe25668a	-0.16152397
140	0x3e31b798	0.17355192
141	0xbd45cfed	-0.048293997
142	0xbd4b08f4	-0.049569085
143	0xbe02ff48	-0.12792695
144	0xbd7cc31e	-0.061709516
145	0x3d5f4126	0.05450549
146	0xbe0cfd3c	-0.13768476
147	0xbe138c49	-0.14408983
148	0x3dc7b64b	0.097515665
149	0xbe8c4431	-0.27395776
150	0x3e4117f3	0.18856792
151	0x3e404ed3	0.18780069
152	0x3e8c5d02	0.2741471
153	0x3e8d8499	0.27640226
154	0x3e3ec18b	0.18628518
155	0x3e7e9b61	0.2486396
156	0x3e6e69dd	0.23282571
157	0x3da0d645	0.07853369
158	0xbc9da5e0	-0.019244134
159	0x3dbf8cc8	0.09353024
160	0x3e279db6	0.16368756
161	0x3e277969	0.16354908
162	0xbdce8c47	-0.100853495
163	0xbe106803	-0.14102177
164	0x3e2cacca	0.16862789
165	0x3ac4e306	0.0015021272
166	0xbd80bd57	-0.06286114
167	0xbe4de172	-0.20105532
168	0xbe901409	-0.28140286
169	0x3e9debbb	0.3084391
170	0xbe236099	-0.15954818
171	0xbe52a39b	-0.20570223
172	0xbe9b5daf	-0.30344912
173	0xbe11535e	-0.14191958
174	0x3df249eb	0.11830505
175	0xbe0b7ed7	-0.13622604
176	0xbe691d1d	-0.22765012
177	0xbe5f989b	-0.21835558
178	0xbea48279	-0.32130793
179	0xbe9ea941	-0.30988505
180	0x3cd1a8a5	0.025593111
181	0x3d22a50c	0.039708182
182	0xbe40afba	-0.18817034
183	0xbea4948c	-0.32144582
184	0xbe82abe7	-0.25521776
185	0x3c6b078e	0.014345063
186	0x3d8e0e72	0.06936349
187	0xbe8deb26	-0.27718467
188	0xbea40ab4	-0.32039416
189	0xbcf70bfe	-0.030157086
190	0x3e45de2e	0.19323036
191	0xbd3c85c8	-0.04602602
192	0xbe85d532	-0.26139218
193	0xbe9452ca	-0.28969413
194	0x3e62df6d	0.22155543
195	0x3d38e943	0.04514433
196	0xbe15872f	-0.1460235
197	0xbe312097	-0.17297588
198	0xbd2d79be	-0.04235243
199	0x3ea1663c	0.3152331
200	0x3e29e1f1	0.16590096
201	0x3ce1da62	0.027569953
202	0x3d9131bd	0.07089565
203	0xbe062786	-0.13101014
204	0xbe93e9ef	-0.28889415
205	0x3e0a9415	0.13533051
206	0x3da0d2b1	0.07852686
207	0xbcc44fd2	-0.023963843
208	0xbe884e64	-0.26622307
209	0xbb9c7d47	-0.0047756764
210	0x3e59db3f	0.21275042
211	0x3dd8e73c	0.105909795
212	0xbe2d8cb3	-0.16948204
213	0xbea8647f	-0.32889172
214	0x3e6853a2	0.22688153
215	0x3e5e6e5c	0.21721786
216	0x3e367b28	0.17820418
217	0xbe24be90	-0.16088319
218	0xbe8e38bb	-0.27777657
219	0x3ead1457	0.3380458
220	0x3e4861c0	0.19568539
221	0xbc878340	-0.016542077
222	0xbd82b1af	-0.06381547
223	0x3db86e27	0.09005385
224	0x3ea98604	0.33110058
225	0x3e9934be	0.29923052
226	0x3ea93178	0.33045554
227	0x3eab859b	0.3350037
228	0x3ea8645c	0.32889068
229	0x3ea7851c	0.32718742
230	0x39813c26	0.0002464961
231	0x3d0528bb	0.032509547
232	0x3ded6a4e	0.11592542
233	0x3e92ad5e	0.28647894
234	0x3e30f5ad	0.17281218
235	0xbe711a61	-0.23545219
236	0xbe27c534	-0.16383821
237	0xbe8e3ef7	-0.27782413
238	0xbe2d6ac1	-0.16935255
239	0xbe1dc2fc	-0.15406412
240	0xbd7720d2	-0.060334034
241	0xba8c66ef	-0.0010711829
242	0xbe153fa1	-0.14575054
243	0xbd58a88f	-0.052895125
244	0xbe09e02a	-0.13464418
245	0xbd3ce87c	-0.046120152
246	0x3e08a6b7	0.13344847
247	0xbbc5dcba	-0.0060382755
248	0xbd637a69	-0.05553666
249	0xbdf663a8	-0.12030727
250	0xbdf098f1	-0.11747921
251	0x3e4f0526	0.20216808
252	0x3e96bcae	0.29440826
253	0x3e754a58	0.23954141
254	0x3e08b40c	0.13349932
255	0xbea2d106	-0.31800097

conv1.bias f4 [6]
0	0x3e3ebb10	0.18626046
1	0xbe3c1ffb	-0.18371575
2	0xbea61aec	-0.32442415
3	0xbef9cfed	-0.48791447
4	0xbf224b65	-0.6339629
5	0xbf277c59	-0.65424114

conv2.weight f4 [16, 6, 5, 5]
0	0xbe4b1a4e	-0.19834253
1	0xbe1b930a	-0.1519281
2	0xbe571601	-0.21004488
3	0xbe0d83d5	-0.13819821
4	0xbd73c98e	-0.05951839
5	0xbdc081d4	-0.09399763
6	0xbe1d94cb	-0.15388791
7	0xbd610fe1	-0.054946784
8	0xbd52dc22	-0.051479466
9	0xbd613fd3	-0.05499251
10	0xbc248505	-0.01004148
11	0x3b7addf8	0.0038279276
12	0x3ce5ce2e	0.028052416
13	0x3d0ec86e	0.034859113
14	0x3d21aa79	0.039469216
15	0x3d0e000f	0.034668025
16	0x3dddde71	0.10833443
17	0x3daa07e7	0.083022885
18	0x3dcca466	0.09992294
19	0x3d1115c6	0.035421155
20	0x3dd39898	0.10331839
21	0x3e16cd7a	0.1472682
22	0x3d385397	0.045001592
23	0x3df37692	0.1188785
24	0x3e1c0d51	0.15239455
25	0x3e0cb3be	0.13740441
26	0x3d1e4452	0.038639374
27	0x3d62072d	0.055182625
28	0x3d60acdd	0.054852355
29	0x3e28bb3b	0.16477673
30	0xbdf0ed0e	-0.117639646
31	0xbbeb40f0	-0.007179372
32	0xbd7f38b7	-0.062309947
33	0x3d2a884f	0.0416339
34	0x3dbc8dcc	0.09206733
35	0xbddfb6d2	-0.10923542
36	0xbdf5e506	-0.120065734
37	0xbc371c5c	-0.011176195
38	0xbd3233db	-0.043506484
39	0xbd0ee920	-0.034890294
40	0x3d95c664	0.07313231
41	0x3d1c7c99	0.038204763
42	0xbdc1dfaf	-0.094664924
43	0xbe2cb64d	-0.16866417
44	0xbd74044f	-0.05957442
45	0x3de0950b	0.10965928
46	0x3ddfca13	0.109272145
47	0xbb3e5c01	-0.0029046538
48	0x38bb4f4b	8.931624e-05
49	0xbd89b304	-0.06723598
50	0xbd5d8175	-0.054078538
51	0xbe4c4d2d	-0.19951315
52	0xbe2d5109	-0.16925444
53	0xbdd45c0c	-0.10369119
54	0xbe323f29	-0.17406906
55	0xbd95737e	-0.07297419
56	0xbd685b3f	-0.056727644
57	0x3c45a407	0.012063033
58	0xbcce372c	-0.025172792
59	0xbdf1376d	-0.1177815
60	0xbca9f5b9	-0.020747053
61	0x3d61c4a8	0.055119187
62	0x3da28249	0.07935006
63	0x3cf17e52	0.02947918
64	0x3c897f4f	0.016784338
65	0xbc0a0af1	-0.00842546
66	0xbd925ab8	-0.071462095
67	0x3dad8c59	0.08474035
68	0x3d8e0462	0.0693443
69	0xbc10937f	-0.008824228
70	0xbd2412f4	-0.040057138
71	0xbd759adb	-0.059962135
72	0xbc7b74c2	-0.015347661
73	0x3d98aba0	0.0745461
74	0x3d4b7ee5	0.049681563
75	0x3dff13b0	0.12454927
76	0x3e55f60a	0.20894638
77	0x3e4bc4ce	0.19899294
78	0x3dc49fcc	0.09600791
79	0xbca33727	-0.01992376
80	0xbd677ef0	-0.05651754
81	0x3c6ef53e	0.0145848375
82	0x3e151a73	0.14560871
83	0x3e2ba67e	0.1676273
84	0x3df33239	0.118748136
85	0xbca48a1c	-0.020085387
86	0x3d9b24fd	0.07575414
87	0x3dd11d42	0.102106586
88	0x3de9aace	0.114095315
89	0x3c1b6762	0.009485098
90	0x3d79d914	0.060998037
91	0x3e0cd616	0.13753542
92	0x3d753dec	0.059873506
93	0x3ddb4c4a	0.1070791
94	0xbd938340	-0.07202768
95	0xbd9f6f55	-0.07784907
96	0xbda0b3c5	-0.07846788
97	0x3b909a98	0.0044129603
98	0x3c8c493f	0.01712477
99	0x3d70216d	0.058625627
100	0xbb802349	-0.0039104563
101	0x3ddf5e4b	0.10906657
102	0x3e30cb13	0.17264967
103	0x3e1932b5	0.1496075
104	0x3db25a5a	0.087086394
105	0x3e0816cb	0.13289945
106	0x3e1a0fef	0.1504514
107	0x3d7a42cd	0.061098862
108	0x3db3a737	0.08772128
109	0x3aa836ac	0.0012833676
110	0xbd1f4481	-0.03888369
111	0x3df2b03e	0.11850022
112	0xbce59bec	-0.02802845
113	0x3d81f0ed	0.06344781
114	0xbd96a33f	-0.073553555
115	0xbdb29736	-0.087202474
116	0x3cfcf2cb	0.030877491
117	0x3d94cdca	0.07265814
118	0xbcdc91d2	-0.026925001
119	0xbcdb8539	-0.026796924
120	0xbd41179d	-0.04714166
121	0x3d925517	0.07145136
122	0x3d758858	0.05994448
123	0xbd2b673a	-0.04184649
124	0x3d1c958e	0.038228564
125	0x3e1942f5	0.14966948
126	0x3cf48c65	0.029852102
127	0x3ddc78f9	0.10765261
128	0x3b0fdc58	0.0021951403
129	0x3c82fb0d	0.015988851
130	0xbd9bda9c	-0.07610056
131	0xbb3124a1	-0.002702989
132	0x3bbeb1ef	0.005819551
133	0xbd5f1323	-0.05446161
134	0xbd898976	-0.06715672
135	0xbe310801	-0.1728821
136	0xbe264891	-0.1623862
137	0xbe350574	-0.17677861
138	0xbe3bffab	-0.18359248
139	0x3c190476	0.0093394425
140	0xbd5a7b46	-0.05334022
141	0xbde0acf8	-0.10970491
142	0xbd82a7b8	-0.06379646
143	0xbdd26b76	-0.10274403
144	0xbe21141c	-0.15730327
145	0xbd7b540a	-0.061359443
146	0x3d7b4168	0.061341673
147	0xbd509072	-0.050919004
148	0xbda9e0aa	-0.082948044
149	0xbe33cb13	-0.17557935
150	0x3c5ae35f	0.013359874
151	0x3cbdf8d4	0.02318994
152	0x3b8140b9	0.003944483
153	0xbd7cb291	-0.06169373
154	0x3dadc912	0.08485617
155	0xbd82f4cb	-0.06394347
156	0xbd97a25e	-0.07404016
157	0xbc5b533e	-0.013386546
158	0x3dac21e2	0.084049
159	0xbca58f69	-0.020209985
160	0xbc8285f7	-0.01593302
161	0x3c4122ff	0.011788129
162	0x3d512291	0.051058356
163	0xbd13c3a9	-0.036075268
164	0xbd1a6be2	-0.03770054
165	0xbd8dcb10	-0.06923497
166	0xbc279b29	-0.010229864
167	0xbb1743ba	-0.002308114
168	0xbc8afb90	-0.016965657
169	0xbd8aa3a7	-0.067694955
170	0xbe0f0707	-0.13967524
171	0xbda3a488	-0.07990366
172	0x3c8ccc8d	0.017187381
173	0xbd55e465	-0.052219767
174	0x3d617578	0.055043668
175	0x3d759c5f	0.05996358
176	0xbd6273ad	-0.0552861
177	0xbcb31072	-0.021858428
178	0x3df8b893	0.1214458
179	0x3cd37780	0.025813818
180	0x3df0b936	0.11754076
181	0xbdda0b01	-0.1064663
182	0x3d207c75	0.03918119
183	0xbc886294	-0.016648568
184	0x3d20804e	0.03918486
185	0x3d40bc24	0.047054425
186	0xbe154f6e	-0.14581081
187	0xbd3b09b9	-0.04566357
188	0xbd04851b	-0.0323535
189	0x3c961493	0.018320357
190	0x3e0bc8ea	0.13650861
191	0xbe387e64	-0.18016964
192	0x3d0fae20	0.035078168
193	0x3d2e8b4a	0.042613305
194	0x3d799346	0.060931467
195	0x3c6f6f85	0.014613991
196	0xbe18c3e8	-0.14918482
197	0xbce1d2d6	-0.027566355
198	0x3da428dc	0.08015606
199	0xbd66523e	-0.056230776
200	0x3d2f7662	0.042837508
201	0xbd00af7e	-0.031417362
202	0xbdd711ac	-0.105014175
203	0x3ce2bbf4	0.027677514
204	0x3d0dcafa	0.0346174
205	0x3e156c01	0.14591981
206	0xbe137e78	-0.14403713
207	0xbce61409	-0.028085725
208	0xbc8a9737	-0.016917808
209	0xbce4bcb9	-0.027922021
210	0x3e4b0081	0.19824411
211	0xbe2dc96f	-0.16971372
212	0x3d0944b9	0.033512805
213	0x3da7b5ac	0.08188948
214	0x3d5b4a9a	0.053537942
215	0x3e49a64f	0.19692348
216	0xbe2e02f8	-0.1699332
217	0xbcfe648a	-0.0310538
218	0x3c9a0469	0.018800931
219	0xbd58b0e9	-0.05290309
220	0x3d847712	0.06468023
221	0xbe4360d6	-0.19079909
222	0xbd04631b	-0.032321077
223	0xbc521839	-0.012823158
224	0x3cf44477	0.029817803
225	0x3d093d33	0.03350563
226	0x3d551a1b	0.05202685
227	0x3ccede77	0.025252564
228	0x3d590f5c	0.052993163
229	0xbbfc1e93	-0.0076940744
230	0xbddf2019	-0.10894794
231	0xbbe6f9c4	-0.0070488174
232	0xbd4c9bcc	-0.049953267
233	0x3d473ef8	0.048644036
234	0xbdccec32	-0.10005988
235	0xbd9773b4	-0.073951155
236	0xbddef369	-0.108862706
237	0x3b1f024e	0.0024262848
238	0xbd8042b8	-0.062627256
239	0xbd6f3de9	-0.05840865
240	0xbb005cea	-0.001958663
241	0x3dd08da3	0.10183265
242	0x3d85f5e9	0.06541044
243	0xbcbdf79d	-0.02318936
244	0x3dbd6a28	0.09248763
245	0x3d932f0a	0.07186706
246	0xbb8ff9c9	-0.0043937904
247	0xbd795486	-0.060871623
248	0xbde45f9f	-0.11151051
249	0xbd884016	-0.066528484
250	0x3d8cc49e	0.06873439
251	0xbcb99313	-0.022653138
252	0x3cd7a3c7	0.026323212
253	0xbd132e40	-0.03593278
254	0xbd1d1cc0	-0.038357496
255	0xbd1c3104	-0.038132682

conv2.bias f4 [16]
0	0xbe79e27f	-0.24402808
1	0xbe7d348e	-0.2472708
2	0xbe7669d8	-0.24063814
3	0xbe405195	-0.18781121
4	0xbea0d87c	-0.31415164
5	0x3eae0626	0.33989066
6	0x3e3a508f	0.18194793
7	0xbf1bcc0a	-0.60858214
8	0xbf49a488	-0.7876668
9	0xbeeeb16e	-0.46619743
10	0xba59adc3	-0.00083037856
11	0x3c8db0a7	0.017296148
12	0xbda807ac	-0.08204588
13	0x3f14c4fa	0.5811306
14	0xbf3876f9	-0.7205654
15	0xbdb36cee	-0.08761011

fc1.weight f4 [120, 400]
0	0xbd556db4	-0.052106574
1	0xbd1609ea	-0.03663055
2	0x3d0b9eb2	0.03408689
3	0xbd0bfc78	-0.03417632
4	0x3c8a4900	0.016880512
5	0xbd4d733f	-0.050158735
6	0x3d019ba5	0.031642575
7	0xbcd52f1c	-0.02602344
8	0x3c390a7b	0.011294003
9	0xbc8aec84	-0.016958483
10	0x3d197fce	0.0374754
11	0xbd1f2021	-0.038849
12	0x3ccf471f	0.025302468
13	0xbd2e57ba	-0.04256413
14	0xbd037f9c	-0.03210412
15	0x3d069c4d	0.032863904
16	0xbd2bc3f2	-0.041934915
17	0xbd383af6	-0.044978105
18	0xbd115f71	-0.03549141
19	0x3bce6189	0.006298248
20	0x3c5b5ea7	0.013389266
21	0x3b4a2887	0.003084691
22	0xbc608d91	-0.013705627
23	0xbcfa0cc8	-0.030523673
24	0x3c3a357a	0.011365289
25	0x3d314d3d	0.04328655
26	0x3cd9e2ec	0.026597463
27	0x3d2a14de	0.041523807
28	0xbd21fa47	-0.039545324
29	0x3cdbe395	0.026841918
30	0x3cbd6950	0.023121506
31	0x3d0a1b5c	0.0337175
32	0x3d337c2a	0.043819584
33	0xbcc3903e	-0.023872491
34	0x3c21c3f6	0.009873381
35	0xbc4064c7	-0.011742777
36	0x3b9d9a93	0.0048096864
37	0xbd0da7eb	-0.034583967
38	0x3d2265f7	0.039648023
39	0xbc063d7e	-0.008193372
40	0x3d1354af	0.035969432
41	0xbce9bf62	-0.028533641
42	0x3b49ed34	0.003081155
43	0xbd29ba81	-0.04143763
44	0x3b435889	0.002980741
45	0xbd22bb4c	-0.0397294
46	0x3d2a1a41	0.041528944
47	0x3d2e8bad	0.042613674
48	0xbd396f97	-0.045272436
49	0x3d0e4aae	0.03473919
50	0xbce6a665	-0.028155515
51	0x3cfbd647	0.030741824
52	0x3d101cd1	0.03518373
53	0x3ca1bbc5	0.019742856
54	0x3bd6d4f6	0.0065561486
55	0xbcbb0ce0	-0.022833288
56	0xbcc4506b	-0.023964128
57	0x3d2e7c90	0.04259926
58	0x3d02d901	0.031945232
59	0x3a19d702	0.00058685255
60	0x3b6a1b10	0.0035721697
61	0x3cb53919	0.022121953
62	0x3d35cbc0	0.044383764
63	0xbd485059	-0.04890475
64	0xbd49cfa3	-0.049270283
65	0x3c515eb6	0.0127789285
66	0x3c8fb0a7	0.01754029
67	0x3ce4ef44	0.027946122
68	0x3bcf063e	0.006317883
69	0xbcbf24d6	-0.023332994
70	0xbd0f55e5	-0.034994025
71	0x3ccffa54	0.02538792
72	0xbd08244e	-0.033237748
73	0x3d14bca1	0.036312703
74	0x3c9db04b	0.019249102
75	0xbd2f9182	-0.042863376
76	0xbceed747	-0.029155387
77	0xbce9e794	-0.028552808
78	0xbcd4826d	-0.025941098
79	0xbd41d4f1	-0.047322217
80	0x3d4ad68b	0.04952101
81	0xbcd5fe3e	-0.026122209
82	0xbd47d29a	-0.04878483
83	0x3ca4d0f8	0.020119175
84	0xbd3aa740	-0.04556966
85	0xbd1b94bc	-0.03798364
86	0xbc13d35e	-0.009022562
87	0xbcb0befe	-0.021575447
88	0xbd49aec1	-0.049238924
89	0xbc9b4a0c	-0.018956207
90	0xbd4e5b70	-0.05038017
91	0x3ba27051	0.004957237
92	0x3d2e6b8e	0.04258304
93	0x3d27403a	0.040832736
94	0xbd16c938	-0.03681299
95	0xbd025e69	-0.031828318
96	0xbcf47e5d	-0.029845411
97	0xbc71ae66	-0.0147510525
98	0x3b53145b	0.0032208178
99	0x3cbd48b6	0.02310596
100	0xbd453c6f	-0.048153337
101	0xbcf947ac	-0.030429684
102	0x3bb443a5	0.005501228
103	0x3cb135be	0.021632072
104	0xb95cccf6	-0.00021057189
105	0x3c1991a5	0.009373103
106	0x3cc69f38	0.024245843
107	0xbc44a255	-0.012001594
108	0x3cd17afa	0.025571335
109	0x3d373c0c	0.044735
110	0x3d1f4fe2	0.03889454
111	0x3ce9c4e4	0.028536268
112	0xbd39317c	-0.045213208
113	0xbd2b37ba	-0.041801192
114	0xbd0e450f	-0.03473383
115	0xbd58368f	-0.052786406
116	0xbd06376c	-0.0327677
117	0x3cbe2abf	0.023213742
118	0xbcb479ab	-0.022030672
119	0x3c15b7e7	0.009138084
120	0x3bb377a0	0.005476907
121	0x3cfdc028	0.030975416
122	0x3cae9d90	0.021315366
123	0xbd5b6528	-0.053563267
124	0x3d0bb171	0.03410477
125	0xbcb7573f	-0.02238047
126	0x3bcbdcb4	0.006221378
127	0xbceb4ad6	-0.028722208
128	0x3b29c0f7	0.002590237
129	0xbd203e47	-0.039121892
130	0xbd2c3a69	-0.04204789
131	0xbd4daeb4	-0.050215438
132	0xbbdbc9a9	-0.0067073894
133	0x3d315ca5	0.043301243
134	0xbcad975b	-0.021190336
135	0xbd1ba847	-0.03800228
136	0xbc4f550c	-0.012654554
137	0xbc18ca91	-0.009325639
138	0xbd3a4605	-0.045476932
139	0xbd0802a6	-0.03320565
140	0xbd3c0f20	-0.04591286
141	0x3cceb3bb	0.025232187
142	0xbcbc42d5	-0.022981087
143	0xbcee3e3b	-0.029082408
144	0x3d4c9e48	0.049955636
145	0x3d46891d	0.048470605
146	0xbb3d3728	-0.0028871987
147	0xbd2b3655	-0.041799862
148	0xbd3cbf8e	-0.04608112
149	0x3c82fbe2	0.015989248
150	0x3d0e3e99	0.034727667
151	0x3d353f65	0.04424991
152	0xbc114982	-0.008867623
153	0x3cb3e082	0.02195764
154	0x3d0cea57	0.03440317
155	0xbc8de419	-0.01732068
156	0xbcd990e1	-0.026558341
157	0x3c869a54	0.016431011
158	0x3c7ca7cd	0.015420866
159	0xbd218655	-0.03943475
160	0x3c4db0e2	0.012554379
161	0xbd1dc57a	-0.038518406
162	0xbd20b79d	-0.039237607
163	0xbc1e056e	-0.009644849
164	0xbd0f1449	-0.034931455
165	0x3d27ec8b	0.04099707
166	0x3c7ff4c6	0.015622323
167	0xbb87ca03	-0.0041439547
168	0xbcb6f323	-0.022332733
169	0xbcf237d3	-0.029567635
170	0xbd05b4f1	-0.032643262
171	0x3d383f57	0.04498228
172	0x3d36560f	0.044515666
173	0xbc816367	-0.015794469
174	0xbd251b8d	-0.040309478
175	0xbcdd21ce	-0.026993658
176	0x3bd77551	0.0065752645
177	0x3c813600	0.01577282
178	0x3d26ffa8	0.040771157
179	0x3bc3d90c	0.0059768017
180	0xbcc3332a	-0.023828108
181	0x3bf96b48	0.007611666
182	0xbd5a716f	-0.053330835
183	0xbd18cf0c	-0.03730683
184	0xbd58186c	-0.052757666
185	0x3cd28a78	0.025700793
186	0x3d350f28	0.044203907
187	0x3cf2f194	0.029656209
188	0xbc0af3b3	-0.008480954
189	0x3b2f0540	0.002670601
190	0xbbba1b1a	-0.0056795003
191	0x3d14b411	0.036304537
192	0xbcec4d4a	-0.028845448
193	0x3a8ab760	0.0010583214
194	0xbb6d73d2	-0.0036232364
195	0x3d2ebda1	0.042661313
196	0x3d00ee29	0.031477127
197	0x3cb3e208	0.021958366
198	0x3c4a4a09	0.012346753
199	0xbc8f2ed3	-0.017478382
200	0x3ce81924	0.0283323
201	0xbca6e58c	-0.020373128
202	0xbd1df003	-0.03855897
203	0xbc213835	-0.009840061
204	0x3d47073e	0.04859089
205	0xbc75525c	-0.014973249
206	0x3d162d60	0.036664367
207	0xbc063088	-0.008190282
208	0xbc204e57	-0.009784303
209	0x3d26c79e	0.040717714
210	0xbb7c5144	-0.0038500587
211	0x3c0d454b	0.008622478
212	0x393b7b3b	0.00017879617
213	0xbb7c1540	-0.0038464814
214	0xbcc23b91	-0.023710044
215	0x3d38bc16	0.045101248
216	0xbc39fe6e	-0.011352165
217	0xbd31e5c3	-0.04343201
218	0x3bdd6429	0.006756325
219	0x3c8500d4	0.016235746
220	0x3d00be35	0.031431396
221	0xbb32f5d1	-0.0027307163
222	0xbcdc9b5a	-0.026929546
223	0x3be74001	0.0070571904
224	0xbd5352ba	-0.051592566
225	0xbd345c38	-0.04403326
226	0x3d29fefc	0.041502938
227	0x3d0618c0	0.032738447
228	0xbd105574	-0.035237744
229	0x3c2c5bb1	0.010519908
230	0x3d1858da	0.03719411
231	0xbc34bfa9	-0.0110320235
232	0xbd00647b	-0.031345826
233	0x3d019c7e	0.031643383
234	0x3ca0f3ad	0.019647444
235	0x3a0868b8	0.00052035926
236	0xbc2374c9	-0.009976574
237	0x3b37aea9	0.002802769
238	0xbc9a944e	-0.018869545
239	0x3ccb6da6	0.024832558
240	0x3cdeb366	0.027185153
241	0xbd0c1387	-0.03419831
242	0xbc90295b	-0.017597845
243	0xbb73720b	-0.0037146832
244	0x3c5348d1	0.012895779
245	0x3c8ef8b6	0.017452579
246	0x3b6af529	0.0035851693
247	0xbd24bf8e	-0.040221743
248	0x3c994e72	0.018714163
249	0xbcbe0422	-0.02319533
250	0xbc8caa2f	-0.017170994
251	0xbd00ae3d	-0.031416167
252	0xbc598e48	-0.013278551
253	0x3d310014	0.043212965
254	0x3d014ba5	0.03156628
255	0x3cc1ea57	0.023671312

fc1.bias f4 [120]
0	0xbafd8cd1	-0.0019344335
1	0xbd4f8169	-0.050660525
2	0x3daeba6f	0.08531653
3	0xbd1b1871	-0.037865106
4	0xbd9150ba	-0.070954755
5	0xbc853703	-0.016261583
6	0x3c8198d0	0.015819937
7	0xbe047e05	-0.12938698
8	0x3a52dac2	0.0008043462
9	0x3d51bbfc	0.051204666
10	0x3d2a2d5b	0.04154716
11	0x3d7f1c98	0.06228313
12	0xbe2e3830	-0.17013621
13	0xbd686e79	-0.05674598
14	0xbc091246	-0.008366173
15	0xbd23e61f	-0.040014382
16	0xbc7b97c2	-0.015356006
17	0x3e13f0f3	0.14447384
18	0x3c148b29	0.0090663815
19	0xbd748f7d	-0.059707154
20	0xbcdfe308	-0.027329937
21	0xbd87218e	-0.06598197
22	0xbc8a846a	-0.016908843
23	0x3c7a6b36	0.01528435
24	0x3d6835e1	0.056692008
25	0x3d989b56	0.07451503
26	0x3e115a6c	0.1419465
27	0xbd807199	-0.06271667
28	0x3d72be6f	0.059263643
29	0xbca3c2de	-0.01999038
30	0x3c959bb5	0.018262723
31	0x3cd33ac2	0.025784854
32	0x3d9b273e	0.07575844
33	0xbd048240	-0.03235078
34	0xbe00c06c	-0.12573403
35	0xbd9cc31c	-0.07654402
36	0x3da14e4c	0.07876262
37	0xbe2aac16	-0.16667208
38	0xbb87caad	-0.004144034
39	0xbd2a70cf	-0.04161149
40	0xbc0aa5d2	-0.008462386
41	0x3dee9359	0.11649198
42	0xbd0cdae1	-0.034388427
43	0xbdd49ac6	-0.10381083
44	0x3c4be984	0.012445811
45	0xbd0b4e28	-0.034010082
46	0xbdb447fc	-0.088027924
47	0x3cbe79e9	0.02325149
48	0xbda7060e	-0.08155452
49	0x3da39b4a	0.079886034
50	0xbc269809	-0.010168084
51	0xbd3893f8	-0.04506299
52	0x3cf4d75e	0.029887851
53	0x3bdebafd	0.006797193
54	0xbc06aea6	-0.00822035
55	0xbd30ceb1	-0.043165866
56	0x3cd546cd	0.026034737
57	0x3ca6122d	0.020272339
58	0x3c3f176a	0.011663297
59	0x3da53acd	0.08067856
60	0xbc787a68	-0.015165903
61	0x3cb8e351	0.02256933
62	0xbd4f978d	-0.05068164
63	0xba2aece5	-0.00065202854
64	0xbdd216ca	-0.10258253
65	0xbdc1713d	-0.094454266
66	0xbdccc2a6	-0.09998064
67	0xbdf8d780	-0.12150478
68	0x3c3d8cb7	0.011569194
69	0x3d29ac87	0.0414243
70	0x3d80e4cf	0.06293642
71	0xbdf3ec75	-0.11910335
72	0xbc1a4faf	-0.009418412
73	0x3ccc7e9c	0.024962716
74	0xbd195628	-0.03743568
75	0xbd25aee9	-0.04045001
76	0x3c6dbb4c	0.014509987
77	0xbce6f721	-0.028194012
78	0x3da9b7b2	0.0828699
79	0x3d961887	0.07328897
80	0xbddad352	-0.106848374
81	0x3d00503f	0.03132653
82	0x3c4bbe4f	0.01243551
83	0xbccb290c	-0.024799846
84	0xbcccdd46	-0.025007855
85	0x3d4bc2af	0.04974621
86	0xbc50e311	-0.012749449
87	0xbd23c687	-0.039984252
88	0xbd3ab530	-0.04558295
89	0xbcfefd49	-0.031126635
90	0x3d9b8fc1	0.07595778
91	0xbd27061f	-0.040777322
92	0xbb44bc0b	-0.003001931
93	0x3cf7e52b	0.030260643
94	0x3cf6197c	0.030041449
95	0xbcaf4516	-0.021395247
96	0xbcb6d06a	-0.022316176
97	0xbc633004	-0.013866428
98	0x3d02d018	0.031936735
99	0x3dd5ebda	0.10445376
100	0xbd8a513e	-0.06753777
101	0xbcf47ca6	-0.029844593
102	0xbdeaf525	-0.11472539
103	0xbda96358	-0.082709014
104	0xbc79e8da	-0.01525327
105	0xbc8e3454	-0.017358936
106	0xbc6611c3	-0.014042321
107	0x3cb2b727	0.02181585
108	0xbc63af16	-0.013896724
109	0xbce0ed9a	-0.027457047
110	0x3dd6ffa8	0.10497981
111	0xbd09f4a5	-0.033680577
112	0xbe159eca	-0.14611354
113	0x3dad66b0	0.08466852
114	0xbc9c6cba	-0.019094814
115	0x3c84d614	0.016215362
116	0xbcc06e9e	-0.023490246
117	0xbd66e10a	-0.056366958
118	0xbd7271c0	-0.05919051
119	0xbc1dca21	-0.009630711

fc2.weight f4 [84, 120]
0	0xbc7a2cff	-0.015269517
1	0xbcdd90ce	-0.027046587
2	0xbd1d3bd0	-0.03838712
3	0x3d1ccb41	0.038279776
4	0x3e03cc04	0.12870795
5	0xbd42c1ee	-0.047548227
6	0xbd7567a6	-0.0599133
7	0x3d9f8bb6	0.077903196
8	0x3c413f90	0.01179494
9	0x3d8142ec	0.063115925
10	0xbb4a211b	-0.0030842486
11	0xbde1da64	-0.11027983
12	0x3db6b078	0.089203775
13	0xbdce1513	-0.10062613
14	0x3d253798	0.04033622
15	0xbda092b4	-0.078404814
16	0x3d16203c	0.036651835
17	0x3d922d95	0.071376
18	0xbd8cfd36	-0.06884234
19	0x3b9612e4	0.0045798887
20	0xbc689462	-0.0141955335
21	0x3a16ea8e	0.0005756997
22	0x3d5377c7	0.0516279
23	0x3d050346	0.032473825
24	0xbe00a3d2	-0.12562492
25	0x3d9978c6	0.07493739
26	0xbdf9a740	-0.121901035
27	0xbd0b431d	-0.03399955
28	0xbe02e0f9	-0.12781133
29	0x3d163182	0.036668308
30	0xbd621fef	-0.055206235
31	0x3d2c06fa	0.04199884
32	0xbda491f7	-0.08035653
33	0xbd17ba1b	-0.03704272
34	0xbda0abb1	-0.078452475
35	0xbd8b6c16	-0.06807725
36	0x3df31c0f	0.11870586
37	0x3da2e876	0.07954495
38	0x3d1fb648	0.038992196
39	0x3b8517da	0.004061681
40	0x3bb230cd	0.0054379464
41	0x3c5603da	0.013062442
42	0x399dd895	0.0003010674
43	0x3d610a7d	0.054941643
44	0x3d757738	0.05992815
45	0x3d23545f	0.039875384
46	0x3d5a0991	0.05323178
47	0x3ce43350	0.027856499
48	0x3d6fb8ae	0.058525734
49	0xba80675d	-0.000979643
50	0x3d3abe4c	0.045591637
51	0xbb84a00d	-0.0040474
52	0x3e0f52ae	0.13996384
53	0x3cc1a23d	0.023636932
54	0x3dac920a	0.08426292
55	0x3d66b4ee	0.05632489
56	0x3d0795c2	0.033101805
57	0x3d549aa3	0.051905286
58	0xbd988ec2	-0.07449104
59	0x3da23b42	0.07921459
60	0x3c24f087	0.010067112
61	0x3d0572bd	0.032580126
62	0xbcd0ae08	-0.02547361
63	0xbc7b9116	-0.015354415
64	0x3d92ec9b	0.07174035
65	0x3cd5849d	0.026064212
66	0x3d8088d1	0.06276096
67	0x3d62c399	0.055362318
68	0xbcea4bc2	-0.028600577
69	0xbd8fe8ed	-0.07026849
70	0xbd996667	-0.07490235
71	0x3da0d9ae	0.07854019
72	0x3b04d6d0	0.002026964
73	0xbc8d19c8	-0.017224208
74	0xbdb3a1ed	-0.08771119
75	0xbd693d10	-0.056943
76	0x3d44ac5a	0.04801593
77	0x3da7cbff	0.08193206
78	0xbe1399f7	-0.14414202
79	0xbd4a49a0	-0.04938662
80	0x3d9a2c1e	0.07527946
81	0xbd87a8e6	-0.06624012
82	0x3d97fc0c	0.07421121
83	0xbcf8e91d	-0.030384595
84	0xbcceba46	-0.025235306
85	0xbd47c15b	-0.048768383
86	0xbdaede68	-0.085385144
87	0xbda068ab	-0.07832464
88	0x3cc3cd91	0.023901733
89	0xbc237bf8	-0.009978287
90	0x3d21feec	0.039549753
91	0x3dc0773d	0.09397743
92	0x3cac2264	0.021012492
93	0x3ccf5314	0.02530817
94	0xbc0879bd	-0.008329806
95	0xbdc3ef68	-0.095671475
96	0xbd1a8aa2	-0.037729867
97	0xbc3f32f2	-0.011669861
98	0x3c5db0bc	0.013530906
99	0xbdf85a2d	-0.12126575
100	0x3db412b4	0.0879263
101	0x3c926dd9	0.017874645
102	0xbaf5df05	-0.0018758482
103	0x3d7b849a	0.061405756
104	0xbd0d8d3d	-0.034558523
105	0x3dc7a490	0.09748185
106	0x3d83e835	0.06440774
107	0xbda25fff	-0.07928466
108	0xbd22aec8	-0.039717466
109	0xbe033db7	-0.12816511
110	0xbcdda216	-0.027054828
111	0x3d5adc62	0.05343283
112	0x3cbf7685	0.023371944
113	0x3d48712b	0.04893605
114	0x3da78a6e	0.081807
115	0xbd73cf96	-0.05952414
116	0xbd811e5c	-0.06304619
117	0x3d645c27	0.055751946
118	0xbd810b6a	-0.06301005
119	0x3d5639ff	0.052301403
120	0xbd64ef2a	-0.055892147
121	0x3a8f5d40	0.0010937825
122	0xbd074af0	-0.03303045
123	0xbce30907	-0.027714266
124	0x3d524353	0.051333737
125	0xbc351fbc	-0.011054929
126	0xbd668d0e	-0.056286864
127	0xbc684ab4	-0.014177967
128	0xbd8b87a5	-0.068129815
129	0xbd26ae32	-0.04069347
130	0xbd14be2f	-0.036314186
131	0x3c565856	0.013082584
132	0x3d7246a8	0.059149414
133	0x3d8f6ac3	0.07002785
134	0xbd07755c	-0.033070907
135	0x3c0b96b1	0.008519814
136	0x3da3aced	0.07991967
137	0xbdb25424	-0.08707455
138	0x3d1fe084	0.039032474
139	0x3daf1b71	0.08550156
140	0xbc9e9e6a	-0.019362647
141	0x3ccd92db	0.02509444
142	0xbd770c47	-0.060314443
143	0xbc682771	-0.01416956
144	0xbddde92f	-0.10835492
145	0x3d3c54d0	0.04597932
146	0x3d4396f9	0.0477514
147	0xbdb025c8	-0.08600956
148	0xbdbc0b1a	-0.09181805
149	0x3d6e39dc	0.058160648
150	0xbb3ffaf1	-0.002929386
151	0x3d90752a	0.07053597
152	0x3bb29cd0	0.0054508224
153	0x3d834ed9	0.06411523
154	0x3deadbd6	0.11467712
155	0xbde7e7a1	-0.113234766
156	0x3cf2365b	0.029566934
157	0xbde760f2	-0.11297788
158	0x3ddc33b6	0.107520506
159	0xbd90ba63	-0.070668004
160	0xbdab9a3f	-0.083790295
161	0xbd00ecc9	-0.031475816
162	0xbd81811e	-0.06323455
163	0xbd8e7789	-0.06956393
164	0xbd8dff31	-0.069334395
165	0xbde0579b	-0.109542094
166	0xbdc4cdf8	-0.09609598
167	0xbdc0d34d	-0.094153024
168	0x3ce2f846	0.027706277
169	0xbd346f48	-0.04405144
170	0x3d6a3f1c	0.057189092
171	0x3d6c1e4c	0.05764608
172	0x3d2755e4	0.040853396
173	0xbda2bd24	-0.07946232
174	0xbd85caaf	-0.065327995
175	0x3c72f8a8	0.014829792
176	0xbdd42bea	-0.103599384
177	0xbd4f007c	-0.05053757
178	0xbd213f46	-0.039366983
179	0xbdbfe0c7	-0.09369045
180	0x3ca12bfe	0.019674297
181	0xbdb6da36	-0.08928339
182	0xbcde2ca8	-0.027120903
183	0x3d2e59f1	0.042566244
184	0x3d835957	0.064135246
185	0x3d19801d	0.037475694
186	0xbbe9eb89	-0.0071386737
187	0x3b648746	0.0034870668
188	0x3bfd3eaf	0.0077284197
189	0xbd1f2836	-0.038856708
190	0xbd274624	-0.040838376
191	0x3de6e6e9	0.11274511
192	0xbd2e479a	-0.042548753
193	0x3cb15af0	0.021649808
194	0x3bdcb505	0.0067354464
195	0xbc0b9fbf	-0.008521973
196	0xbdabd417	-0.08390062
197	0xbd2a6e78	-0.041609257
198	0x3d7b17c5	0.061301965
199	0xbd8bae7f	-0.06820392
200	0x3d76cc13	0.060253214
201	0x3dad0433	0.084480666
202	0x3db0983e	0.08622788
203	0x3d0dc64f	0.03461295
204	0x3e0d58c1	0.13803388
205	0x3ca6b344	0.020349152
206	0x3cf2d621	0.02964312
207	0xbcac20cf	-0.021011738
208	0x3bc5d4cb	0.00603733
209	0x3dbf169c	0.09330484
210	0x3d74da84	0.059778705
211	0xbda930d5	-0.08261267
212	0xbcb8323f	-0.022484897
213	0x3d354f24	0.044264928
214	0xbdb4ed18	-0.088342845
215	0x3db75b00	0.08952904
216	0xbd241137	-0.04005548
217	0x3d842ddf	0.06454062
218	0x3c4004d6	0.011719903
219	0xbda35c00	-0.07976532
220	0x3e17df10	0.14831185
221	0xbd5acbf6	-0.05341717
222	0x3d37f424	0.044910565
223	0xbd522c85	-0.05131199
224	0xbd2d7696	-0.04234942
225	0x3cc9954a	0.02460732
226	0xbc75e43d	-0.0150080295
227	0xbc800957	-0.015629454
228	0xbd47a778	-0.048743695
229	0x3b716ea3	0.0036839626
230	0xbbd2dc1a	-0.0064349296
231	0xbdbc8376	-0.09204762
232	0x3cdf8e88	0.027289644
233	0x3cc0468e	0.023471143
234	0xbd802046	-0.06256156
235	0xbbb6a89c	-0.005574299
236	0xbcfbc322	-0.030732695
237	0x3db7759f	0.08957981
238	0x3e0621cb	0.13098828
239	0x3d478532	0.04871101
240	0xbcfde394	-0.030992307
241	0x3d1dfba4	0.03857006
242	0xbe213127	-0.15741406
243	0x3d9e17b1	0.077193625
244	0xbcd2f761	-0.025752725
245	0x3d403259	0.046923015
246	0x3d1bec5b	0.038067203
247	0x3df90678	0.12159437
248	0x3daab742	0.08335735
249	0x3c358a63	0.011080357
250	0xbdd589cd	-0.10426674
251	0xbcb7406f	-0.022369592
252	0x3d0140fd	0.03155612
253	0x3d834c7b	0.06411072
254	0xbc60c002	-0.013717653
255	0x3dfcec17	0.12349718

fc2.bias f4 [84]
0	0xbdbde874	-0.092728525
1	0xbae2d6a1	-0.0017306396
2	0xbccdf2ab	-0.025140127
3	0x3d8a0cda	0.067407325
4	0xbd8e827d	-0.069584824
5	0xbc6e3a95	-0.014540334
6	0x3cdd9504	0.027048595
7	0xbd5bd52e	-0.0536701
8	0xbd7da446	-0.06192424
9	0x3e2307d7	0.1592096
10	0x3a796f40	0.0009515174
11	0xbdb89cfe	-0.09014319
12	0x3b7d9d6a	0.0038698562
13	0x3d9f8abe	0.07790135
14	0x3dcfb8dd	0.10142682
15	0x3c291eb8	0.010322265
16	0x3db8a26b	0.09015354
17	0x3df582f3	0.11987867
18	0x3e02032c	0.12696522
19	0xbe0c98d4	-0.13730174
20	0x3d639db4	0.05557032
21	0xbb93687c	-0.0044985395
22	0xbcb8f7a2	-0.022579018
23	0xbd7b2396	-0.061313234
24	0xbc14c0d4	-0.009079177
25	0xbd48d397	-0.049029913
26	0xbc85da3c	-0.016339414
27	0xbd8234da	-0.06357737
28	0x3d82aae0	0.06380248
29	0xbdd67163	-0.104708456
30	0xbda9addb	-0.082851134
31	0x3e112450	0.14174008
32	0x3d1b7303	0.03795148
33	0xbc53a365	-0.012917374
34	0xbd911205	-0.07083515
35	0x3d5b7470	0.05357784
36	0xbd99b6ca	-0.07505567
37	0xbced0c26	-0.028936457
38	0xbd21220a	-0.039339103
39	0xbc0c8948	-0.008577652
40	0xbd72937c	-0.059222683
41	0x3d8a0327	0.067388825
42	0x3d9ca744	0.07649091
43	0x3e32a98c	0.1744749
44	0xbdaa29ae	-0.08308731
45	0x3e4d52bc	0.20051092
46	0x3c64532c	0.013935845
47	0x3e081861	0.1329055
48	0x3d8a6ff4	0.067596346
49	0xbd94f76b	-0.07273754
50	0x3d857e00	0.06518173
51	0x3d84ba32	0.064808264
52	0x3d001adb	0.03127561
53	0x3e1ff507	0.15620814
54	0xbd39a3d4	-0.045322254
55	0xbca54423	-0.020174092
56	0xbbad32af	-0.005285583
57	0x3d29550a	0.041340865
58	0xbd1879c3	-0.037225496
59	0xbc0a20f7	-0.008430711
60	0xbcb3682e	-0.021900263
61	0xbde1601f	-0.11004662
62	0xbd629088	-0.055313617
63	0xbd466bad	-0.04844253
64	0x3e255521	0.16145755
65	0x3d96dc04	0.073661834
66	0x3c6ddb79	0.014517658
67	0x3d209782	0.03920699
68	0x3d39b044	0.045334116
69	0x3e7e20cf	0.24817203
70	0xbe0a21c5	-0.13489445
71	0xbcb8cd90	-0.022558957
72	0x3ca33354	0.019921936
73	0xbd7ddf58	-0.061980575
74	0x3d4457fc	0.04793547
75	0xbca69afd	-0.020337576
76	0xbc5b1e3a	-0.013373906
77	0x3e588a0f	0.21146415
78	0xbc93bbaf	-0.01803383
79	0x3e1023f9	0.14076222
80	0xbd33f2f0	-0.043932855
81	0xbde4d5cc	-0.11173591
82	0x3d2081e3	0.03918637
83	0x3dc82dd2	0.097743645

fc3.weight f4 [10, 84]
0	0xbe9a088d	-0.3008465
1	0xbc9d9b05	-0.019238958
2	0xbd59242a	-0.053013004
3	0x3e994b8b	0.29940447
4	0xbd85f3f5	-0.06540672
5	0xbe35a8d5	-0.17740186
6	0x3e8e3849	0.27777317
7	0xbc7cd589	-0.01543177
8	0x3c9dac87	0.019247307
9	0xbe4bd857	-0.19906746
10	0x3d9f6b20	0.07784104
11	0xbdd3f145	-0.10348753
12	0x3e229789	0.15878119
13	0xbd2c9dfd	-0.042142857
14	0x3e0dc955	0.13846333
15	0xbd483e18	-0.048887342
16	0xbce32a7f	-0.027730225
17	0x3e6a559d	0.22884221
18	0x3e34b2aa	0.1764628
19	0xbc81521f	-0.015786229
20	0x3e2e7370	0.17036223
21	0xbe421f7d	-0.18957324
22	0xbb1746e0	-0.0023083016
23	0x3c9c29dc	0.019062929
24	0x3cacc825	0.02109153
25	0x3de68a1e	0.112568125
26	0xbe0bc458	-0.13649118
27	0x3e3af2cd	0.18256684
28	0xbd5db0d1	-0.054123703
29	0xbd14782e	-0.036247425
30	0xbe102e99	-0.14080276
31	0x3d8faf4a	0.070158556
32	0x3d75a955	0.05997594
33	0xbe2ecbb8	-0.170699
34	0xbdd4a462	-0.10382916
35	0xbe466069	-0.19372715
36	0xbddcc1b3	-0.10779133
37	0x3e54bdb2	0.20775488
38	0xbc0d77d2	-0.008634524
39	0x3b405bbf	0.002935156
40	0xb9be28d1	-0.00036270035
41	0x3ddea3c1	0.10871077
42	0xbdcec8dd	-0.100969054
43	0x3e34cf5b	0.17657225
44	0x3dacc6c1	0.08436347
45	0x3e885c1b	0.2663277
46	0xbd309521	-0.04311097
47	0xbdbf2ea7	-0.0933507
48	0xbe5b1cc9	-0.213977
49	0x3d6532e8	0.05595675
50	0xbe27e139	-0.1639451
51	0x3dc278b3	0.09495678
52	0x3d1df46c	0.038563177
53	0xbe94143e	-0.28921694
54	0xbe5f969b	-0.21834795
55	0x3e0be025	0.13659723
56	0xbd91e70a	-0.07124145
57	0xbd79070a	-0.06079773
58	0x3d0694a9	0.032856617
59	0x3d5f30e1	0.054489974
60	0x3e18a33b	0.14906017
61	0x3d8333df	0.06406378
62	0x3a0db358	0.00054054474
63	0x3bd69988	0.006549064
64	0x3d536449	0.05160931
65	0xbe1d8a28	-0.15384734
66	0x3e082058	0.13293588
67	0x3e895607	0.26823446
68	0x3bd12a70	0.006383233
69	0xbdcd7e53	-0.1003386
70	0xbcd7bce9	-0.026335197
71	0xbd52fe39	-0.051511977
72	0x3e644e58	0.22295511
73	0xbd3deb8a	-0.046367206
74	0x3e95d80c	0.29266393
75	0x3e9b1152	0.30286652
76	0xbd0a3dc9	-0.03375033
77	0x3d2bbe50	0.041929543
78	0xbd33dfc1	-0.04391456
79	0x3e93a721	0.28838447
80	0xbe50cb1e	-0.20389983
81	0xbd1c937d	-0.038226593
82	0x3e6e2637	0.23256765
83	0x3e03cfb7	0.12872206
84	0x3d9594a0	0.073037386
85	0x3daf8aea	0.08571418
86	0x3cf3505c	0.029701404
87	0xbe6cef76	-0.23138222
88	0xbd8fa7d0	-0.070144296
89	0x3d382a90	0.044962466
90	0xbd354392	-0.044253893
91	0xbe26553c	-0.16243452
92	0x3da0df91	0.07855142
93	0xbe7ce3c1	-0.24696256
94	0x3dc0ce26	0.0941432
95	0x3da526c0	0.080640316
96	0xbd9d142a	-0.076698616
97	0xbd38953b	-0.045064192
98	0xbe4f02f8	-0.20215976
99	0xbe965b2c	-0.29366434
100	0x3e4f3f09	0.2023889
101	0x3e467ff2	0.19384745
102	0x3e3cbcaf	0.18431352
103	0x3e11c09c	0.14233631
104	0x3e94e88c	0.2908367
105	0xbbfc296a	-0.0076953666
106	0x3e8c94fd	0.2745742
107	0xbadc02f1	-0.0016785545
108	0xbc51aa9d	-0.012797025
109	0xbd9b1b1e	-0.075735316
110	0xbe378541	-0.17921926
111	0x3e1dabef	0.15397619
112	0xbe047bce	-0.12937853
113	0x3e75e8df	0.24014615
114	0xbd5a695f	-0.053323146
115	0xbe8f4377	-0.2798116
116	0x3c54d7e5	0.012990926
117	0x3e97fbe6	0.2968437
118	0x3c878938	0.016544923
119	0x3deec5aa	0.11658795
120	0x3e90af1e	0.28258604
121	0xbc2d3d83	-0.010573748
122	0x3dc35026	0.095367715
123	0x3de91bfd	0.113822915
124	0xbd85485e	-0.065079436
125	0x3e8616cb	0.26189265
126	0x3cc5b913	0.024136102
127	0xbe97d9c1	-0.2965832
128	0x3d799cea	0.06094066
129	0xbdd13eb7	-0.1021704
130	0x3dc11abc	0.09428927
131	0xbe94a80d	-0.29034463
132	0xbe970928	-0.29499173
133	0x3deb2b1c	0.11482832
134	0xbe98ff34	-0.29882205
135	0xbd3a358d	-0.045461226
136	0x3e0a43c2	0.1350241
137	0xbe81f6f4	-0.25383723
138	0xbd066d2f	-0.03281897
139	0xbd06aa92	-0.032877512
140	0xbe2a7b41	-0.1664858
141	0x3dea9cd1	0.114556916
142	0xbdcd007a	-0.100098565
143	0xbd27e937	-0.040993895
144	0xbd3574c6	-0.044300817
145	0x3d0adcc5	0.03390195
146	0xbdcd002f	-0.10009801
147	0xbd53ca3b	-0.051706534
148	0xbe8f5313	-0.27993068
149	0xbe71e6a5	-0.2362314
150	0xbc1b9563	-0.009496066
151	0x3e90afac	0.28259027
152	0x3d4fa923	0.05069841
153	0xbe953831	-0.29144433
154	0x3e26a00e	0.16271994
155	0x39e95521	0.0004450465
156	0xbd6bde1d	-0.05758487
157	0x3e98c48c	0.29837453
158	0xbe02a73e	-0.1275911
159	0xbd0713b4	-0.032977775
160	0x3e52232f	0.20521234
161	0xbd50a450	-0.05093795
162	0xbd7559b7	-0.059900012
163	0xbcc686ce	-0.024234202
164	0x3e21bafc	0.15793985
165	0x3d1f9325	0.038958687
166	0xbe5e9db7	-0.21739851
167	0xbe2dcf9c	-0.16973728
168	0xbd4516d0	-0.04811746
169	0xbdacc886	-0.08436684
170	0xbe2070f2	-0.15668085
171	0x3e8b08c8	0.27155137
172	0x3d864666	0.06556396
173	0xbe1f5ac1	-0.15561964
174	0xbdc25fe9	-0.0949095
175	0xbda9d1eb	-0.08291992
176	0xbdd57fdd	-0.104247786
177	0x3e96bb6d	0.2943987
178	0xbbb36936	-0.0054751886
179	0xbd48656e	-0.048924856
180	0x3db027ce	0.08601342
181	0xbe0115e3	-0.12606005
182	0xbd248335	-0.04016419
183	0x3dbc5025	0.09194974
184	0xbe1e4366	-0.15455398
185	0xbddd122e	-0.10794483
186	0xbdcbb536	-0.099466726
187	0x3d58a682	0.05289317
188	0xbe07a9fc	-0.13248438
189	0x3d591f90	0.053008616
190	0xbd0d83b5	-0.034549434
191	0xbd71cb46	-0.059031747
192	0xbdba65c2	-0.0910144
193	0xbd9b4dce	-0.075831994
194	0x3da2b281	0.07944203
195	0xbd665489	-0.056232963
196	0x3e564c1f	0.20927475
197	0xbddd00d1	-0.10791171
198	0x3e06aa48	0.13150895
199	0x3e58cc49	0.21171679
200	0xbe1ec7d4	-0.15505916
201	0xbc8386d8	-0.01605551
202	0xbc9d56ec	-0.019206487
203	0xbc1ad934	-0.009451199
204	0xbe386221	-0.18006183
205	0x3e6170fb	0.22015755
206	0x3cc990f5	0.024605254
207	0xbc67a518	-0.0141384825
208	0x3c35ded7	0.011100492
209	0xbd705caf	-0.05868214
210	0x3dd6dc1b	0.104912005
211	0x3e8cdce0	0.27512264
212	0x3d4a3db5	0.049375255
213	0x3d6ea2e1	0.058260802
214	0x3dc5b6bc	0.096539944
215	0xba93a234	-0.001126355
216	0x3ca89319	0.020577954
217	0x3d9f7698	0.07786292
218	0x3e0ec9c4	0.13944155
219	0x3e2522b7	0.16126524
220	0xbda4b372	-0.08042039
221	0x3cbed470	0.023294657
222	0xbc64d86c	-0.013967615
223	0xbde1aed9	-0.11019678
224	0x3dd4ce83	0.103909515
225	0xbe2f208c	-0.1710226
226	0xbcd4873f	-0.025943397
227	0xbcc84d02	-0.024450783
228	0xbd93c240	-0.072147846
229	0xbe214f82	-0.15752986
230	0xbbaf4d3f	-0.0053497846
231	0x3d090040	0.033447504
232	0x3e874a52	0.2642389
233	0xbe355533	-0.17708282
234	0x3dc6e076	0.09710781
235	0xbc37edf5	-0.011226167
236	0x3cfa85ec	0.030581437
237	0x3e719958	0.23593652
238	0x3d1c3642	0.03813768
239	0xbe0a9f7f	-0.13537405
240	0x3e2b5b29	0.16733994
241	0x3e21fb0e	0.15818426
242	0x3dc651cb	0.096835695
243	0x3e604239	0.21900262
244	0x3d46dcf4	0.04855056
245	0x3e2bcefb	0.16778176
246	0x3d7c526c	0.06160204
247	0xbd92b74c	-0.07163867
248	0xbdbec900	-0.093156815
249	0x3d675996	0.05648192
250	0x3c8a9670	0.016917437
251	0xbe0edc2f	-0.13951181
252	0x3e3fa7b5	0.18716319
253	0x3d6d8e66	0.05799713
254	0x3d400365	0.046878237
255	0x3e1bd7de	0.15219066
